…
      sampler {
        min_scale: 0.3
        max_scale: 1
        min_aspect_ratio: 0.5
        max_aspect_ratio: 2
      }
      sample_constraint {
        min_jaccard_overlap: 0.9
      }
      max_sample: 1
      max_trials: 50
    }
    batch_sampler {
      sampler {
        min_scale: 0.3
        max_scale: 1
        min_aspect_ratio: 0.5
        max_aspect_ratio: 2
      }
      sample_constraint {
        max_jaccard_overlap: 1
      }
      max_sample: 1
      max_trials: 50
    }
    label_map_file: "data/VOC0712/labelmap_voc.prototxt"
  }
}
layer {
  name: "conv1_1"
  type: "Convolution"
  bottom: "data"
  top: "conv1_1"
  param {
    lr_mult: 1
    decay_mult: 1
  }
  param {
    lr_mult: 2
    decay_mult: 0
  }
  convolution_param {
    num_output: 64
    pad: 1
    kernel_size: 3
    weight_filler {
      type: "xavier"
    }
    bias_filler {
      type: "constant"
      value: 0
    }
  }
}
layer {
  name: "relu1_1"
  type: "ReLU"
  bottom: "conv1_1"
  top: "conv1_1"
}
layer {
  name: "conv1_2"
  type: "Convolution"
  bottom: "conv1_1"
  top: "conv1_2"
  param {
    lr_mult: 1
    decay_mult: 1
  }
  param {
    lr_mult: 2
    decay_mult: 0
  }
  convolution_param {
    num_output: 64
    pad: 1
    kernel_size: 3
    weight_filler {
      type: "xavier"
    }
    bias_filler {
      type: "constant"
      value: 0
    }
  }
}
layer {
  name: "relu1_2"
  type: "ReLU"
  bottom: "conv1_2"
  top: "conv1_2"
}
layer {
  name: "pool1"
  type: "Pooling"
  bottom: "conv1_2"
  top: "pool1"
  pooling_param {
    pool: MAX
    kernel_size: 2
    stride: 2
  }
}
layer {
  name: "conv2_1"
  type: "Convolution"
  bottom: "pool1"
  top: "conv2_1"
  param {
    lr_mult: 1
    decay_mult: 1
  }
  param {
    lr_mult: 2
    decay_mult: 0
  }
  convolution_param {
    num_output: 128
    pad: 1
    kernel_size: 3
    weight_filler {
      type: "xavier"
    }
    bias_filler {
      type: "constant"
      value: 0
    }
  }
}
layer {
  name: "relu2_1"
  type: "ReLU"
  bottom: "conv2_1"
  top: "conv2_1"
}
layer {
  name: "conv2_2"
  type: "Convolution"
  bottom: "conv2_1"
  top: "conv2_2"
  param {
    lr_mult: 1
    decay_mult: 1
  }
  param {
    lr_mult: 2
    decay_mult: 0
  }
  convolution_param {
    num_output: 128
    pad: 1
    kernel_size: 3
    weight_filler {
      type: "xavier"
    }
    bias_filler {
      type: "constant"
      value: 0
    }
  }
}
layer {
  name: "relu2_2"
  type: "ReLU"
  bottom: "conv2_2"
  top: "conv2_2"
}
layer {
  name: "pool2"
  type: "Pooling"
  bottom: "conv2_2"
  top: "pool2"
  pooling_param {
    pool: MAX
    kernel_size: 2
    stride: 2
  }
}
layer {
  name: "conv3_1"
  type: "Convolution"
  bottom: "pool2"
  top: "conv3_1"
  param {
    lr_mult: 1
    decay_mult: 1
  }
  param {
    lr_mult: 2
    decay_mult: 0
  }
  convolution_param {
    num_output: 256
    pad: 1
    kernel_size: 3
    weight_filler {
      type: "xavier"
    }
    bias_filler {
      type: "constant"
      value: 0
    }
  }
}
layer {
  name: "relu3_1"
  type: "ReLU"
  bottom: "conv3_1"
  top: "conv3_1"
}
layer {
  name: "conv3_2"
  type: "Convolution"
  bottom: "conv3_1"
  top: "conv3_2"
  param {
    lr_mult: 1
    decay_mult: 1
  }
  param {
    lr_mult: 2
    decay_mult: 0
  }
  convolution_param {
    num_output: 256
    pad: 1
    kernel_size: 3
    weight_filler {
      type: "xavier"
    }
    bias_filler {
      type: "constant"
      value: 0
    }
  }
}
layer {
  name: "relu3_2"
  type: "ReLU"
  bottom: "conv3_2"
  top: "conv3_2"
}
layer {
  name: "conv3_3"
  type: "Convolution"
  bottom: "conv3_2"
  top: "conv3_3"
  param {
    lr_mult: 1
    decay_mult: 1
  }
  param {
    lr_mult: 2
    decay_mult: 0
  }
  convolution_param {
    num_output: 256
    pad: 1
    kernel_size: 3
    weight_filler {
      type: "xavier"
    }
    bias_filler {
      type: "constant"
      value: 0
    }
  }
}
layer {
  name: "relu3_3"
  type: "ReLU"
  bottom: "conv3_3"
  top: "conv3_3"
}
layer {
  name: "pool3"
  type: "Pooling"
  bottom: "conv3_3"
  top: "pool3"
  pooling_param {
    pool: MAX
    kernel_size: 2
    stride: 2
  }
}
layer {
  name: "conv4_1"
  type: "Convolution"
  bottom: "pool3"
  top: "conv4_1"
  param {
    lr_mult: 1
    decay_mult: 1
  }
  param {
    lr_mult: 2
    decay_mult: 0
  }
  convolution_param {
    num_output: 512
    pad: 1
    kernel_size: 3
    weight_filler {
      type: "xavier"
    }
    bias_filler {
      type: "constant"
      value: 0
    }
  }
}
layer {
  name: "relu4_1"
  type: "ReLU"
  bottom: "conv4_1"
  top: "conv4_1"
}
layer {
  name: "conv4_2"
  type: "Convolution"
  bottom: "conv4_1"
  top: "conv4_2"
  param {
    lr_mult: 1
    decay_mult: 1
  }
  param {
    lr_mult: 2
    decay_mult: 0
  }
  convolution_param {
    num_output: 512
    pad: 1
    kernel_size: 3
    weight_filler {
      type: "xavier"
    }
    bias_filler {
      type: "constant"
      value: 0
    }
  }
}
layer {
  name: "relu4_2"
  type: "ReLU"
  bottom: "conv4_2"
  top: "conv4_2"
}
layer {
  name: "conv4_3"
  type: "Convolution"
  bottom: "conv4_2"
  top: "conv4_3"
  param {
    lr_mult: 1
    decay_mult: 1
  }
  param {
    lr_mult: 2
    decay_mult: 0
  }
  convolution_param {
    num_output: 512
    pad: 1
    kernel_size: 3
    weight_filler {
      type: "xavier"
    }
    bias_filler {
      type: "constant"
      value: 0
    }
  }
}
layer {
  name: "relu4_3"
  type: "ReLU"
  bottom: "conv4_3"
  top: "conv4_3"
}
layer {
  name: "pool4"
  type: "Pooling"
  bottom: "conv4_3"
  top: "pool4"
  pooling_param {
    pool: MAX
    kernel_size: 2
    stride: 2
  }
}
layer {
  name: "conv5_1"
  type: "Convolution"
  bottom: "pool4"
  top: "conv5_1"
  param {
    lr_mult: 1
    decay_mult: 1
  }
  param {
    lr_mult: 2
    decay_mult: 0
  }
  convolution_param {
    num_output: 512
    pad: 1
    kernel_size: 3
    weight_filler {
      type: "xavier"
    }
    bias_filler {
      type: "constant"
      value: 0
    }
    dilation: 1
  }
}
layer {
  name: "relu5_1"
  type: "ReLU"
  bottom: "conv5_1"
  top: "conv5_1"
}
layer {
  name: "conv5_2"
  type: "Convolution"
  bottom: "conv5_1"
  top: "conv5_2"
  param {
    lr_mult: 1
    decay_mult: 1
  }
  param {
    lr_mult: 2
    decay_mult: 0
  }
  convolution_param {
    num_output: 512
    pad: 1
    kernel_size: 3
    weight_filler {
      type: "xavier"
    }
    bias_filler {
      type: "constant"
      value: 0
    }
    dilation: 1
  }
}
layer {
  name: "relu5_2"
  type: "ReLU"
  bottom: "conv5_2"
  top: "conv5_2"
}
layer {
  name: "conv5_3"
  type: "Convolution"
  bottom: "conv5_2"
  top: "conv5_3"
  param {
    lr_mult: 1
    decay_mult: 1
  }
  param {
    lr_mult: 2
    decay_mult: 0
  }
  convolution_param {
    num_output: 512
    pad: 1
    kernel_size: 3
    weight_filler {
      type: "xavier"
    }
    bias_filler {
      type: "constant"
      value: 0
    }
    dilation: 1
  }
}
layer {
  name: "relu5_3"
  type: "ReLU"
  bottom: "conv5_3"
  top: "conv5_3"
}
layer {
  name: "pool5"
  type: "Pooling"
  bottom: "conv5_3"
  top: "pool5"
  pooling_param {
    pool: MAX
    kernel_size: 3
    stride: 1
    pad: 1
  }
}
layer {
  name: "fc6"
  type: "Convolution"
  bottom: "pool5"
  top: "fc6"
  param {
    lr_mult: 1
    decay_mult: 1
  }
  param {
    lr_mult: 2
    decay_mult: 0
  }
  convolution_param {
    num_output: 1024
    pad: 6
    kernel_size: 3
    weight_filler {
      type: "xavier"
    }
    bias_filler {
      type: "constant"
      value: 0
    }
    dilation: 6
  }
}
layer {
  name: "relu6"
  type: "ReLU"
  bottom: "fc6"
  top: "fc6"
}
layer {
  name: "fc7"
  type: "Convolution"
  bottom: "fc6"
  top: "fc7"
  param {
    lr_mult: 1
    decay_mult: 1
  }
  param {
    lr_mult: 2
    decay_mult: 0
  }
  convolution_param {
    num_output: 1024
    kernel_size: 1
    weight_filler {
      type: "xavier"
    }
    bias_filler {
      type: "constant"
      value: 0
    }
  }
}
layer {
  name: "relu7"
  type: "ReLU"
  bottom: "fc7"
  top: "fc7"
}
layer {
  name: "conv6_1"
  type: "Convolution"
  bottom: "fc7"
  top: "conv6_1"
  param {
    lr_mult: 1
    decay_mult: 1
  }
  param {
    lr_mult: 2
    decay_mult: 0
  }
  convolution_param {
    num_output: 256
    pad: 0
    kernel_size: 1
    stride: 1
    weight_filler {
      type: "xavier"
    }
    bias_filler {
      type: "constant"
      value: 0
    }
  }
}
layer {
  name: "conv6_1_relu"
  type: "ReLU"
  bottom: "conv6_1"
  top: "conv6_1"
}
layer {
  name: "conv6_2"
  type: "Convolution"
  bottom: "conv6_1"
  top: "conv6_2"
  param {
    lr_mult: 1
    decay_mult: 1
  }
  param {
    lr_mult: 2
    decay_mult: 0
  }
  convolution_param {
    num_output: 512
    pad: 1
    kernel_size: 3
    stride: 2
    weight_filler {
      type: "xavier"
    }
    bias_filler {
      type: "constant"
      value: 0
    }
  }
}
layer {
  name: "conv6_2_relu"
  type: "ReLU"
  bottom: "conv6_2"
  top: "conv6_2"
}
layer {
  name: "conv7_1"
  type: "Convolution"
  bottom: "conv6_2"
  top: "conv7_1"
  param {
    lr_mult: 1
    decay_mult: 1
  }
  param {
    lr_mult: 2
    decay_mult: 0
  }
  convolution_param {
    num_output: 128
    pad: 0
    kernel_size: 1
    stride: 1
    weight_filler {
      type: "xavier"
    }
    bias_filler {
      type: "constant"
      value: 0
    }
  }
}
layer {
  name: "conv7_1_relu"
  type: "ReLU"
  bottom: "conv7_1"
  top: "conv7_1"
}
layer {
  name: "conv7_2"
  type: "Convolution"
  bottom: "conv7_1"
  top: "conv7_2"
  param {
    lr_mult: 1
    decay_mult: 1
  }
  param {
    lr_mult: 2
    decay_mult: 0
  }
  convolution_param {
    num_output: 256
    pad: 1
    kernel_size: 3
    stride: 2
    weight_filler {
      type: "xavier"
    }
    bias_filler {
      type: "constant"
      value: 0
    }
  }
}
layer {
  name: "conv7_2_relu"
  type: "ReLU"
  bottom: "conv7_2"
  top: "conv7_2"
}
layer {
  name: "conv8_1"
  type: "Convolution"
  bottom: "conv7_2"
  top: "conv8_1"
  param {
    lr_mult: 1
    decay_mult: 1
  }
  param {
    lr_mult: 2
    decay_mult: 0
  }
  convolution_param {
    num_output: 128
    pad: 0
    kernel_size: 1
    stride: 1
    weight_filler {
      type: "xavier"
    }
    bias_filler {
      type: "constant"
      value: 0
    }
  }
}
layer {
  name: "conv8_1_relu"
  type: "ReLU"
  bottom: "conv8_1"
  top: "conv8_1"
}
layer {
  name: "conv8_2"
  type: "Convolution"
  bottom: "conv8_1"
  top: "conv8_2"
  param {
    lr_mult: 1
    decay_mult: 1
  }
  param {
    lr_mult: 2
    decay_mult: 0
  }
  convolution_param {
    num_output: 256
    pad: 0
    kernel_size: 3
    stride: 1
    weight_filler {
      type: "xavier"
    }
    bias_filler {
      type: "constant"
      value: 0
    }
  }
}
layer {
  name: "conv8_2_relu"
  type: "ReLU"
  bottom: "conv8_2"
  top: "conv8_2"
}
layer {
  name: "conv9_1"
  type: "Convolution"
  bottom: "conv8_2"
  top: "conv9_1"
  param {
    lr_mult: 1
    decay_mult: 1
  }
  param {
    lr_mult: 2
    decay_mult: 0
  }
  convolution_param {
    num_output: 128
    pad: 0
    kernel_size: 1
    stride: 1
    weight_filler {
      type: "xavier"
    }
    bias_filler {
      type: "constant"
      value: 0
    }
  }
}
layer {
  name: "conv9_1_relu"
  type: "ReLU"
  bottom: "conv9_1"
  top: "conv9_1"
}
layer {
  name: "conv9_2"
  type: "Convolution"
  bottom: "conv9_1"
  top: "conv9_2"
  param {
    lr_mult: 1
    decay_mult: 1
  }
  param {
    lr_mult: 2
    decay_mult: 0
  }
  convolution_param {
    num_output: 256
    pad: 0
    kernel_size: 3
    stride: 1
    weight_filler {
      type: "xavier"
    }
    bias_filler {
      type: "constant"
      value: 0
    }
  }
}
layer {
  name: "conv9_2_relu"
  type: "ReLU"
  bottom: "conv9_2"
  top: "conv9_2"
}
layer {
  name: "conv4_3_norm"
  type: "Normalize"
  bottom: "conv4_3"
  top: "conv4_3_norm"
  norm_param {
    across_spatial: false
    scale_filler {
      type: "constant"
      value: 20
    }
    channel_shared: false
  }
}
layer {
  name: "conv4_3_norm_mbox_loc"
  type: "Convolution"
  bottom: "conv4_3_norm"
  top: "conv4_3_norm_mbox_loc"
  param {
    lr_mult: 1
    decay_mult: 1
  }
  param {
    lr_mult: 2
    decay_mult: 0
  }
  convolution_param {
    num_output: 16
    pad: 1
    kernel_size: 3
    stride: 1
    weight_filler {
      type: "xavier"
    }
    bias_filler {
      type: "constant"
      value: 0
    }
  }
}
layer {
  name: "conv4_3_norm_mbox_loc_perm"
  type: "Permute"
  bottom: "conv4_3_norm_mbox_loc"
  top: "conv4_3_norm_mbox_loc_perm"
  permute_param {
    order: 0
    order: 2
    order: 3
    order: 1
  }
}
layer {
  name: "conv4_3_norm_mbox_loc_flat"
  type: "Flatten"
  bottom: "conv4_3_norm_mbox_loc_perm"
  top: "conv4_3_norm_mbox_loc_flat"
  flatten_param {
    axis: 1
  }
}
layer {
  name: "conv4_3_norm_mbox_conf"
  type: "Convolution"
  bottom: "conv4_3_norm"
  top: "conv4_3_norm_mbox_conf"
  param {
    lr_mult: 1
    decay_mult: 1
  }
  param {
    lr_mult: 2
    decay_mult: 0
  }
  convolution_param {
    num_output: 84
    pad: 1
    kernel_size: 3
    stride: 1
    weight_filler {
      type: "xavier"
    }
    bias_filler {
      type: "constant"
      value: 0
    }
  }
}
layer {
  name: "conv4_3_norm_mbox_conf_perm"
  type: "Permute"
  bottom: "conv4_3_norm_mbox_conf"
  top: "conv4_3_norm_mbox_conf_perm"
  permute_param {
    order: 0
    order: 2
    order: 3
    order: 1
  }
}
layer {
  name: "conv4_3_norm_mbox_conf_flat"
  type: "Flatten"
  bottom: "conv4_3_norm_mbox_conf_perm"
  top: "conv4_3_norm_mbox_conf_flat"
  flatten_param {
    axis: 1
  }
}
layer {
  name: "conv4_3_norm_mbox_priorbox"
  type: "PriorBox"
  bottom: "conv4_3_norm"
  bottom: "data"
  top: "conv4_3_norm_mbox_priorbox"
  prior_box_param {
    min_size: 30
    max_size: 60
    aspect_ratio: 2
    flip: true
    clip: false
    variance: 0.1
    variance: 0.1
    variance: 0.2
    variance: 0.2
    step: 8
    offset: 0.5
  }
}
layer {
  name: "fc7_mbox_loc"
  type: "Convolution"
  bottom: "fc7"
  top: "fc7_mbox_loc"
  param {
    lr_mult: 1
    decay_mult: 1
  }
  param {
    lr_mult: 2
    decay_mult: 0
  }
  convolution_param {
    num_output: 24
    pad: 1
    kernel_size: 3
    stride: 1
    weight_filler {
      type: "xavier"
    }
    bias_filler {
      type: "constant"
      value: 0
    }
  }
}
layer {
  name: "fc7_mbox_loc_perm"
  type: "Permute"
  bottom: "fc7_mbox_loc"
  top: "fc7_mbox_loc_perm"
  permute_param {
    order: 0
    order: 2
    order: 3
    order: 1
  }
}
layer {
  name: "fc7_mbox_loc_flat"
  type: "Flatten"
  bottom: "fc7_mbox_loc_perm"
  top: "fc7_mbox_loc_flat"
  flatten_param {
    axis: 1
  }
}
layer {
  name: "fc7_mbox_conf"
  type: "Convolution"
  bottom: "fc7"
  top: "fc7_mbox_conf"
  param {
    lr_mult: 1
    decay_mult: 1
  }
  param {
    lr_mult: 2
    decay_mult: 0
  }
  convolution_param {
    num_output: 126
    pad: 1
    kernel_size: 3
    stride: 1
    weight_filler {
      type: "xavier"
    }
    bias_filler {
      type: "constant"
      value: 0
    }
  }
}
layer {
  name: "fc7_mbox_conf_perm"
  type: "Permute"
  bottom: "fc7_mbox_conf"
  top: "fc7_mbox_conf_perm"
  permute_param {
    order: 0
    order: 2
    order: 3
    order: 1
  }
}
layer {
  name: "fc7_mbox_conf_flat"
  type: "Flatten"
  bottom: "fc7_mbox_conf_perm"
  top: "fc7_mbox_conf_flat"
  flatten_param {
    axis: 1
  }
}
layer {
  name: "fc7_mbox_priorbox"
  type: "PriorBox"
  bottom: "fc7"
  bottom: "data"
  top: "fc7_mbox_priorbox"
  prior_box_param {
    min_size: 60
    max_size: 111
    aspect_ratio: 2
    aspect_ratio: 3
    flip: true
    clip: false
    variance: 0.1
    variance: 0.1
    variance: 0.2
    variance: 0.2
    step: 16
    offset: 0.5
  }
}
layer {
  name: "conv6_2_mbox_loc"
  type: "Convolution"
  bottom: "conv6_2"
  top: "conv6_2_mbox_loc"
  param {
    lr_mult: 1
    decay_mult: 1
  }
  param {
    lr_mult: 2
    decay_mult: 0
  }
  convolution_param {
    num_output: 24
    pad: 1
    kernel_size: 3
    stride: 1
    weight_filler {
      type: "xavier"
    }
    bias_filler {
      type: "constant"
      value: 0
    }
  }
}
layer {
  name: "conv6_2_mbox_loc_perm"
  type: "Permute"
  bottom: "conv6_2_mbox_loc"
  top: "conv6_2_mbox_loc_perm"
  permute_param {
    order: 0
    order: 2
    order: 3
    order: 1
  }
}
layer {
  name: "conv6_2_mbox_loc_flat"
  type: "Flatten"
  bottom: "conv6_2_mbox_loc_perm"
  top: "conv6_2_mbox_loc_flat"
  flatten_param {
    axis: 1
  }
}
layer {
  name: "conv6_2_mbox_conf"
  type: "Convolution"
  bottom: "conv6_2"
  top: "conv6_2_mbox_conf"
  param {
    lr_mult: 1
    decay_mult: 1
  }
  param {
    lr_mult: 2
    decay_mult: 0
  }
  convolution_param {
    num_output: 126
    pad: 1
    kernel_size: 3
    stride: 1
    weight_filler {
      type: "xavier"
    }
    bias_filler {
      type: "constant"
      value: 0
    }
  }
}
layer {
  name: "conv6_2_mbox_conf_perm"
  type: "Permute"
  bottom: "conv6_2_mbox_conf"
  top: "conv6_2_mbox_conf_perm"
  permute_param {
    order: 0
    order: 2
    order: 3
    order: 1
  }
}
layer {
  name: "conv6_2_mbox_conf_flat"
  type: "Flatten"
  bottom: "conv6_2_mbox_conf_perm"
  top: "conv6_2_mbox_conf_flat"
  flatten_param {
    axis: 1
  }
}
layer {
  name: "conv6_2_mbox_priorbox"
  type: "PriorBox"
  bottom: "conv6_2"
  bottom: "data"
  top: "conv6_2_mbox_priorbox"
  prior_box_param {
    min_size: 111
    max_size: 162
    aspect_ratio: 2
    aspect_ratio: 3
    flip: true
    clip: false
    variance: 0.1
    variance: 0.1
    variance: 0.2
    variance: 0.2
    step: 32
    offset: 0.5
  }
}
layer {
  name: "conv7_2_mbox_loc"
  type: "Convolution"
  bottom: "conv7_2"
  top: "conv7_2_mbox_loc"
  param {
    lr_mult: 1
    decay_mult: 1
  }
  param {
    lr_mult: 2
    decay_mult: 0
  }
  convolution_param {
    num_output: 24
    pad: 1
    kernel_size: 3
    stride: 1
    weight_filler {
      type: "xavier"
    }
    bias_filler {
      type: "constant"
      value: 0
    }
  }
}
layer {
  name: "conv7_2_mbox_loc_perm"
  type: "Permute"
  bottom: "conv7_2_mbox_loc"
  top: "conv7_2_mbox_loc_perm"
  permute_param {
    order: 0
    order: 2
    order: 3
    order: 1
  }
}
layer {
  name: "conv7_2_mbox_loc_flat"
  type: "Flatten"
  bottom: "conv7_2_mbox_loc_perm"
  top: "conv7_2_mbox_loc_flat"
  flatten_param {
    axis: 1
  }
}
layer {
  name: "conv7_2_mbox_conf"
  type: "Convolution"
  bottom: "conv7_2"
  top: "conv7_2_mbox_conf"
  param {
    lr_mult: 1
    decay_mult: 1
  }
  param {
    lr_mult: 2
    decay_mult: 0
  }
  convolution_param {
    num_output: 126
    pad: 1
    kernel_size: 3
    stride: 1
    weight_filler {
      type: "xavier"
    }
    bias_filler {
      type: "constant"
      value: 0
    }
  }
}
layer {
  name: "conv7_2_mbox_conf_perm"
  type: "Permute"
  bottom: "conv7_2_mbox_conf"
  top: "conv7_2_mbox_conf_perm"
  permute_param {
    order: 0
    order: 2
    order: 3
    order: 1
  }
}
layer {
  name: "conv7_2_mbox_conf_flat"
  type: "Flatten"
  bottom: "conv7_2_mbox_conf_perm"
  top: "conv7_2_mbox_conf_flat"
  flatten_param {
    axis: 1
  }
}
layer {
  name: "conv7_2_mbox_priorbox"
  type: "PriorBox"
  bottom: "conv7_2"
  bottom: "data"
  top: "conv7_2_mbox_priorbox"
  prior_box_param {
    min_size: 162
    max_size: 213
    aspect_ratio: 2
    aspect_ratio: 3
    flip: true
    clip: false
    variance: 0.1
    variance: 0.1
    variance: 0.2
    variance: 0.2
    step: 64
    offset: 0.5
  }
}
layer {
  name: "conv8_2_mbox_loc"
  type: "Convolution"
  bottom: "conv8_2"
  top: "conv8_2_mbox_loc"
  param {
    lr_mult: 1
    decay_mult: 1
  }
  param {
    lr_mult: 2
    decay_mult: 0
  }
  convolution_param {
    num_output: 16
    pad: 1
    kernel_size: 3
    stride: 1
    weight_filler {
      type: "xavier"
    }
    bias_filler {
      type: "constant"
      value: 0
    }
  }
}
layer {
  name: "conv8_2_mbox_loc_perm"
  type: "Permute"
  bottom: "conv8_2_mbox_loc"
  top: "conv8_2_mbox_loc_perm"
  permute_param {
    order: 0
    order: 2
    order: 3
    order: 1
  }
}
layer {
  name: "conv8_2_mbox_loc_flat"
  type: "Flatten"
  bottom: "conv8_2_mbox_loc_perm"
  top: "conv8_2_mbox_loc_flat"
  flatten_param {
    axis: 1
  }
}
layer {
  name: "conv8_2_mbox_conf"
  type: "Convolution"
  bottom: "conv8_2"
  top: "conv8_2_mbox_conf"
  param {
    lr_mult: 1
    decay_mult: 1
  }
  param {
    lr_mult: 2
    decay_mult: 0
  }
  convolution_param {
    num_output: 84
    pad: 1
    kernel_size: 3
    stride: 1
    weight_filler {
      type: "xavier"
    }
    bias_filler {
      type: "constant"
      value: 0
    }
  }
}
layer {
  name: "conv8_2_mbox_conf_perm"
  type: "Permute"
  bottom: "conv8_2_mbox_conf"
  top: "conv8_2_mbox_conf_perm"
  permute_param {
    order: 0
    order: 2
    order: 3
    order: 1
  }
}
layer {
  name: "conv8_2_mbox_conf_flat"
  type: "Flatten"
  bottom: "conv8_2_mbox_conf_perm"
  top: "conv8_2_mbox_conf_flat"
  flatten_param {
    axis: 1
  }
}
layer {
  name: "conv8_2_mbox_priorbox"
  type: "PriorBox"
  bottom: "conv8_2"
  bottom: "data"
  top: "conv8_2_mbox_priorbox"
  prior_box_param {
    min_size: 213
    max_size: 264
    aspect_ratio: 2
    flip: true
    clip: false
    variance: 0.1
    variance: 0.1
    variance: 0.2
    variance: 0.2
    step: 100
    offset: 0.5
  }
}
layer {
  name: "conv9_2_mbox_loc"
  type: "Convolution"
  bottom: "conv9_2"
  top: "conv9_2_mbox_loc"
  param {
    lr_mult: 1
    decay_mult: 1
  }
  param {
    lr_mult: 2
    decay_mult: 0
  }
  convolution_param {
    num_output: 16
    pad: 1
    kernel_size: 3
    stride: 1
    weight_filler {
      type: "xavier"
    }
    bias_filler {
      type: "constant"
      value: 0
    }
  }
}
layer {
  name: "conv9_2_mbox_loc_perm"
  type: "Permute"
  bottom: "conv9_2_mbox_loc"
  top: "conv9_2_mbox_loc_perm"
  permute_param {
    order: 0
    order: 2
    order: 3
    order: 1
  }
}
layer {
  name: "conv9_2_mbox_loc_flat"
  type: "Flatten"
  bottom: "conv9_2_mbox_loc_perm"
  top: "conv9_2_mbox_loc_flat"
  flatten_param {
    axis: 1
  }
}
layer {
  name: "conv9_2_mbox_conf"
  type: "Convolution"
  bottom: "conv9_2"
  top: "conv9_2_mbox_conf"
  param {
    lr_mult: 1
    decay_mult: 1
  }
  param {
    lr_mult: 2
    decay_mult: 0
  }
  convolution_param {
    num_output: 84
    pad: 1
    kernel_size: 3
    stride: 1
    weight_filler {
      type: "xavier"
    }
    bias_filler {
      type: "constant"
      value: 0
    }
  }
}
layer {
  name: "conv9_2_mbox_conf_perm"
  type: "Permute"
  bottom: "conv9_2_mbox_conf"
  top: "conv9_2_mbox_conf_perm"
  permute_param {
    order: 0
    order: 2
    order: 3
    order: 1
  }
}
layer {
  name: "conv9_2_mbox_conf_flat"
  type: "Flatten"
  bottom: "conv9_2_mbox_conf_perm"
  top: "conv9_2_mbox_conf_flat"
  flatten_param {
    axis: 1
  }
}
layer {
  name: "conv9_2_mbox_priorbox"
  type: "PriorBox"
  bottom: "conv9_2"
  bottom: "data"
  top: "conv9_2_mbox_priorbox"
  prior_box_param {
    min_size: 264
    max_size: 315
    aspect_ratio: 2
    flip: true
    clip: false
    variance: 0.1
    variance: 0.1
    variance: 0.2
    variance: 0.2
    step: 300
    offset: 0.5
  }
}
layer {
  name: "mbox_loc"
  type: "Concat"
  bottom: "conv4_3_norm_mbox_loc_flat"
  bottom: "fc7_mbox_loc_flat"
  bottom: "conv6_2_mbox_loc_flat"
  bottom: "conv7_2_mbox_loc_flat"
  bottom: "conv8_2_mbox_loc_flat"
  bottom: "conv9_2_mbox_loc_flat"
  top: "mbox_loc"
  concat_param {
    axis: 1
  }
}
layer {
  name: "mbox_conf"
  type: "Concat"
  bottom: "conv4_3_norm_mbox_conf_flat"
  bottom: "fc7_mbox_conf_flat"
  bottom: "conv6_2_mbox_conf_flat"
  bottom: "conv7_2_mbox_conf_flat"
  bottom: "conv8_2_mbox_conf_flat"
  bottom: "conv9_2_mbox_conf_flat"
  top: "mbox_conf"
  concat_param {
    axis: 1
  }
}
layer {
  name: "mbox_priorbox"
  type: "Concat"
  bottom: "conv4_3_norm_mbox_priorbox"
  bottom: "fc7_mbox_priorbox"
  bottom: "conv6_2_mbox_priorbox"
  bottom: "conv7_2_mbox_priorbox"
  bottom: "conv8_2_mbox_priorbox"
  bottom: "conv9_2_mbox_priorbox"
  top: "mbox_priorbox"
  concat_param {
    axis: 2
  }
}
layer {
  name: "mbox_loss"
  type: "MultiBoxLoss"
  bottom: "mbox_loc"
  bottom: "mbox_conf"
  bottom: "mbox_priorbox"
  bottom: "label"
  top: "mbox_loss"
  include {
    phase: TRAIN
  }
  propagate_down: true
  propagate_down: true
  propagate_down: false
  propagate_down: false
  loss_param {
    normalization: VALID
  }
  multibox_loss_param {
    loc_loss_type: SMOOTH_L1
    conf_loss_type: SOFTMAX
    loc_weight: 1
    num_classes: 21
    share_location: true
    match_type: PER_PREDICTION
    overlap_threshold: 0.5
    use_prior_for_matching: true
    background_label_id: 0
    use_difficult_gt: true
    neg_pos_ratio: 3
    neg_overlap: 0.5
    code_type: CENTER_SIZE
    ignore_cross_boundary_bbox: false
    mining_type: MAX_NEGATIVE
  }
}
I0824 08:55:35.292213 17213 layer_factory.hpp:77] Creating layer data
I0824 08:55:35.292486 17213 net.cpp:100] Creating Layer data
I0824 08:55:35.292510 17213 net.cpp:408] data -> data
I0824 08:55:35.292558 17213 net.cpp:408] data -> label
I0824 08:55:35.948532 17219 db_lmdb.cpp:35] Opened lmdb examples/VOC0712/VOC0712_trainval_lmdb
I0824 08:55:35.974184 17213 annotated_data_layer.cpp:62] output data size: 1,3,300,300
I0824 08:55:35.974383 17213 net.cpp:150] Setting up data
I0824 08:55:35.974397 17213 net.cpp:157] Top shape: 1 3 300 300 (270000)
I0824 08:55:35.974414 17213 net.cpp:157] Top shape: 1 1 2 8 (16)
I0824 08:55:35.974416 17213 net.cpp:165] Memory required for data: 1080064
I0824 08:55:35.974443 17213 layer_factory.hpp:77] Creating layer data_data_0_split
I0824 08:55:35.978274 17213 net.cpp:100] Creating Layer data_data_0_split
I0824 08:55:35.978299 17213 net.cpp:434] data_data_0_split <- data
I0824 08:55:35.978380 17213 net.cpp:408] data_data_0_split -> data_data_0_split_0
I0824 08:55:35.978395 17213 net.cpp:408] data_data_0_split -> data_data_0_split_1
I0824 08:55:35.978399 17213 net.cpp:408] data_data_0_split -> data_data_0_split_2
I0824 08:55:35.978403 17213 net.cpp:408] data_data_0_split -> data_data_0_split_3
I0824 08:55:35.978406 17213 net.cpp:408] data_data_0_split -> data_data_0_split_4
I0824 08:55:35.978410 17213 net.cpp:408] data_data_0_split -> data_data_0_split_5
I0824 08:55:35.978411 17213 net.cpp:408] data_data_0_split -> data_data_0_split_6
I0824 08:55:35.978425 17213 net.cpp:150] Setting up data_data_0_split
I0824 08:55:35.978426 17213 net.cpp:157] Top shape: 1 3 300 300 (270000)
I0824 08:55:35.978431 17213 net.cpp:157] Top shape: 1 3 300 300 (270000)
I0824 08:55:35.978433 17213 net.cpp:157] Top shape: 1 3 300 300 (270000)
I0824 08:55:35.978435 17213 net.cpp:157] Top shape: 1 3 300 300 (270000)
I0824 08:55:35.978437 17213 net.cpp:157] Top shape: 1 3 300 300 (270000)
I0824 08:55:35.978438 17213 net.cpp:157] Top shape: 1 3 300 300 (270000)
I0824 08:55:35.978440 17213 net.cpp:157] Top shape: 1 3 300 300 (270000)
I0824 08:55:35.978442 17213 net.cpp:165] Memory required for data: 8640064
I0824 08:55:35.978444 17213 layer_factory.hpp:77] Creating layer conv1_1
I0824 08:55:35.978478 17213 net.cpp:100] Creating Layer conv1_1
I0824 08:55:35.978484 17213 net.cpp:434] conv1_1 <- data_data_0_split_0
I0824 08:55:35.978492 17213 net.cpp:408] conv1_1 -> conv1_1
I0824 08:55:35.978938 17213 net.cpp:150] Setting up conv1_1
I0824 08:55:35.978945 17213 net.cpp:157] Top shape: 1 64 300 300 (5760000)
I0824 08:55:35.978946 17213 net.cpp:165] Memory required for data: 31680064
I0824 08:55:35.979034 17213 layer_factory.hpp:77] Creating layer relu1_1
I0824 08:55:35.979063 17213 net.cpp:100] Creating Layer relu1_1
I0824 08:55:35.979070 17213 net.cpp:434] relu1_1 <- conv1_1
I0824 08:55:35.979076 17213 net.cpp:395] relu1_1 -> conv1_1 (in-place)
I0824 08:55:35.979084 17213 net.cpp:150] Setting up relu1_1
I0824 08:55:35.979087 17213 net.cpp:157] Top shape: 1 64 300 300 (5760000)
I0824 08:55:35.979090 17213 net.cpp:165] Memory required for data: 54720064
I0824 08:55:35.979092 17213 layer_factory.hpp:77] Creating layer conv1_2
I0824 08:55:35.979096 17213 net.cpp:100] Creating Layer conv1_2
I0824 08:55:35.979099 17213 net.cpp:434] conv1_2 <- conv1_1
I0824 08:55:35.979101 17213 net.cpp:408] conv1_2 -> conv1_2
I0824 08:55:35.979398 17213 net.cpp:150] Setting up conv1_2
I0824 08:55:35.979403 17213 net.cpp:157] Top shape: 1 64 300 300 (5760000)
I0824 08:55:35.979404 17213 net.cpp:165] Memory required for data: 77760064
I0824 08:55:35.979408 17213 layer_factory.hpp:77] Creating layer relu1_2
I0824 08:55:35.979411 17213 net.cpp:100] Creating Layer relu1_2
I0824 08:55:35.979413 17213 net.cpp:434] relu1_2 <- conv1_2
I0824 08:55:35.979415 17213 net.cpp:395] relu1_2 -> conv1_2 (in-place)
I0824 08:55:35.979419 17213 net.cpp:150] Setting up relu1_2
I0824 08:55:35.979420 17213 net.cpp:157] Top shape: 1 64 300 300 (5760000)
I0824 08:55:35.979422 17213 net.cpp:165] Memory required for data: 100800064
I0824 08:55:35.979424 17213 layer_factory.hpp:77] Creating layer pool1
I0824 08:55:35.979429 17213 net.cpp:100] Creating Layer pool1
I0824 08:55:35.979429 17213 net.cpp:434] pool1 <- conv1_2
I0824 08:55:35.979431 17213 net.cpp:408] pool1 -> pool1
I0824 08:55:35.981180 17213 net.cpp:150] Setting up pool1
I0824 08:55:35.981186 17213 net.cpp:157] Top shape: 1 64 150 150 (1440000)
I0824 08:55:35.981189 17213 net.cpp:165] Memory required for data: 106560064
I0824 08:55:35.981191 17213 layer_factory.hpp:77] Creating layer conv2_1
I0824 08:55:35.981197 17213 net.cpp:100] Creating Layer conv2_1
I0824 08:55:35.981199 17213 net.cpp:434] conv2_1 <- pool1
I0824 08:55:35.981204 17213 net.cpp:408] conv2_1 -> conv2_1
I0824 08:55:35.981467 17213 net.cpp:150] Setting up conv2_1
I0824 08:55:35.981492 17213 net.cpp:157] Top shape: 1 128 150 150 (2880000)
I0824 08:55:35.981495 17213 net.cpp:165] Memory required for data: 118080064
I0824 08:55:35.981500 17213 layer_factory.hpp:77] Creating layer relu2_1
I0824 08:55:35.981504 17213 net.cpp:100] Creating Layer relu2_1
I0824 08:55:35.981505 17213 net.cpp:434] relu2_1 <- conv2_1
I0824 08:55:35.981508 17213 net.cpp:395] relu2_1 -> conv2_1 (in-place)
I0824 08:55:35.981510 17213 net.cpp:150] Setting up relu2_1
I0824 08:55:35.981513 17213 net.cpp:157] Top shape: 1 128 150 150 (2880000)
I0824 08:55:35.981514 17213 net.cpp:165] Memory required for data: 129600064
I0824 08:55:35.981515 17213 layer_factory.hpp:77] Creating layer conv2_2
I0824 08:55:35.981526 17213 net.cpp:100] Creating Layer conv2_2
I0824 08:55:35.981528 17213 net.cpp:434] conv2_2 <- conv2_1
I0824 08:55:35.981531 17213 net.cpp:408] conv2_2 -> conv2_2
I0824 08:55:35.982151 17213 net.cpp:150] Setting up conv2_2
I0824 08:55:35.982157 17213 net.cpp:157] Top shape: 1 128 150 150 (2880000)
I0824 08:55:35.982159 17213 net.cpp:165] Memory required for data: 141120064
I0824 08:55:35.982163 17213 layer_factory.hpp:77] Creating layer relu2_2
I0824 08:55:35.982167 17213 net.cpp:100] Creating Layer relu2_2
I0824 08:55:35.982169 17213 net.cpp:434] relu2_2 <- conv2_2
I0824 08:55:35.982172 17213 net.cpp:395] relu2_2 -> conv2_2 (in-place)
I0824 08:55:35.982174 17213 net.cpp:150] Setting up relu2_2
I0824 08:55:35.982175 17213 net.cpp:157] Top shape: 1 128 150 150 (2880000)
I0824 08:55:35.982177 17213 net.cpp:165] Memory required for data: 152640064
I0824 08:55:35.982179 17213 layer_factory.hpp:77] Creating layer pool2
I0824 08:55:35.982182 17213 net.cpp:100] Creating Layer pool2
I0824 08:55:35.982183 17213 net.cpp:434] pool2 <- conv2_2
I0824 08:55:35.982185 17213 net.cpp:408] pool2 -> pool2
I0824 08:55:35.982188 17213 net.cpp:150] Setting up pool2
I0824 08:55:35.982190 17213 net.cpp:157] Top shape: 1 128 75 75 (720000)
I0824 08:55:35.982192 17213 net.cpp:165] Memory required for data: 155520064
I0824 08:55:35.982193 17213 layer_factory.hpp:77] Creating layer conv3_1
I0824 08:55:35.982197 17213 net.cpp:100] Creating Layer conv3_1
I0824 08:55:35.982199 17213 net.cpp:434] conv3_1 <- pool2
I0824 08:55:35.982203 17213 net.cpp:408] conv3_1 -> conv3_1
I0824 08:55:35.983413 17213 net.cpp:150] Setting up conv3_1
I0824 08:55:35.983417 17213 net.cpp:157] Top shape: 1 256 75 75 (1440000)
I0824 08:55:35.983419 17213 net.cpp:165] Memory required for data: 161280064
I0824 08:55:35.983424 17213 layer_factory.hpp:77] Creating layer relu3_1
I0824 08:55:35.983428 17213 net.cpp:100] Creating Layer relu3_1
I0824 08:55:35.983428 17213 net.cpp:434] relu3_1 <- conv3_1
I0824 08:55:35.983431 17213 net.cpp:395] relu3_1 -> conv3_1 (in-place)
I0824 08:55:35.983433 17213 net.cpp:150] Setting up relu3_1
I0824 08:55:35.983435 17213 net.cpp:157] Top shape: 1 256 75 75 (1440000)
I0824 08:55:35.983438 17213 net.cpp:165] Memory required for data: 167040064
I0824 08:55:35.983438 17213 layer_factory.hpp:77] Creating layer conv3_2
I0824 08:55:35.983449 17213 net.cpp:100] Creating Layer conv3_2
I0824 08:55:35.983450 17213 net.cpp:434] conv3_2 <- conv3_1
I0824 08:55:35.983453 17213 net.cpp:408] conv3_2 -> conv3_2
I0824 08:55:35.985438 17213 net.cpp:150] Setting up conv3_2
I0824 08:55:35.985450 17213 net.cpp:157] Top shape: 1 256 75 75 (1440000)
I0824 08:55:35.985455 17213 net.cpp:165] Memory required for data: 172800064
I0824 08:55:35.985458 17213 layer_factory.hpp:77] Creating layer relu3_2
I0824 08:55:35.985463 17213 net.cpp:100] Creating Layer relu3_2
I0824 08:55:35.985466 17213 net.cpp:434] relu3_2 <- conv3_2
I0824 08:55:35.985469 17213 net.cpp:395] relu3_2 -> conv3_2 (in-place)
I0824 08:55:35.985472 17213 net.cpp:150] Setting up relu3_2
I0824 08:55:35.985474 17213 net.cpp:157] Top shape: 1 256 75 75 (1440000)
I0824 08:55:35.985476 17213 net.cpp:165] Memory required for data: 178560064
I0824 08:55:35.985478 17213 layer_factory.hpp:77] Creating layer conv3_3
I0824 08:55:35.985484 17213 net.cpp:100] Creating Layer conv3_3
I0824 08:55:35.985486 17213 net.cpp:434] conv3_3 <- conv3_2
I0824 08:55:35.985508 17213 net.cpp:408] conv3_3 -> conv3_3
I0824 08:55:35.988310 17213 net.cpp:150] Setting up conv3_3
I0824 08:55:35.988322 17213 net.cpp:157] Top shape: 1 256 75 75 (1440000)
I0824 08:55:35.988332 17213 net.cpp:165] Memory required for data: 184320064
I0824 08:55:35.988343 17213 layer_factory.hpp:77] Creating layer relu3_3
I0824 08:55:35.988351 17213 net.cpp:100] Creating Layer relu3_3
I0824 08:55:35.988359 17213 net.cpp:434] relu3_3 <- conv3_3
I0824 08:55:35.988368 17213 net.cpp:395] relu3_3 -> conv3_3 (in-place)
I0824 08:55:35.988377 17213 net.cpp:150] Setting up relu3_3
I0824 08:55:35.988384 17213 net.cpp:157] Top shape: 1 256 75 75 (1440000)
I0824 08:55:35.988390 17213 net.cpp:165] Memory required for data: 190080064
I0824 08:55:35.988397 17213 layer_factory.hpp:77] Creating layer pool3
I0824 08:55:35.988410 17213 net.cpp:100] Creating Layer pool3
I0824 08:55:35.988416 17213 net.cpp:434] pool3 <- conv3_3
I0824 08:55:35.988425 17213 net.cpp:408] pool3 -> pool3
I0824 08:55:35.988435 17213 net.cpp:150] Setting up pool3
I0824 08:55:35.988441 17213 net.cpp:157] Top shape: 1 256 38 38 (369664)
I0824 08:55:35.988449 17213 net.cpp:165] Memory required for data: 191558720
I0824 08:55:35.988457 17213 layer_factory.hpp:77] Creating layer conv4_1
I0824 08:55:35.988466 17213 net.cpp:100] Creating Layer conv4_1
I0824 08:55:35.988472 17213 net.cpp:434] conv4_1 <- pool3
I0824 08:55:35.988481 17213 net.cpp:408] conv4_1 -> conv4_1
I0824 08:55:35.993438 17213 net.cpp:150] Setting up conv4_1
I0824 08:55:35.993455 17213 net.cpp:157] Top shape: 1 512 38 38 (739328)
I0824 08:55:35.993459 17213 net.cpp:165] Memory required for data: 194516032
I0824 08:55:35.993465 17213 layer_factory.hpp:77] Creating layer relu4_1
I0824 08:55:35.993474 17213 net.cpp:100] Creating Layer relu4_1
I0824 08:55:35.993480 17213 net.cpp:434] relu4_1 <- conv4_1
I0824 08:55:35.993486 17213 net.cpp:395] relu4_1 -> conv4_1 (in-place)
I0824 08:55:35.993494 17213 net.cpp:150] Setting up relu4_1
I0824 08:55:35.993495 17213 net.cpp:157] Top shape: 1 512 38 38 (739328)
I0824 08:55:35.993497 17213 net.cpp:165] Memory required for data: 197473344
I0824 08:55:35.993499 17213 layer_factory.hpp:77] Creating layer conv4_2
I0824 08:55:35.993505 17213 net.cpp:100] Creating Layer conv4_2
I0824 08:55:35.993506 17213 net.cpp:434] conv4_2 <- conv4_1
I0824 08:55:35.993510 17213 net.cpp:408] conv4_2 -> conv4_2
I0824 08:55:36.003157 17213 net.cpp:150] Setting up conv4_2
I0824 08:55:36.003188 17213 net.cpp:157] Top shape: 1 512 38 38 (739328)
I0824 08:55:36.003199 17213 net.cpp:165] Memory required for data: 200430656
I0824 08:55:36.003211 17213 layer_factory.hpp:77] Creating layer relu4_2
I0824 08:55:36.003222 17213 net.cpp:100] Creating Layer relu4_2
I0824 08:55:36.003228 17213 net.cpp:434] relu4_2 <- conv4_2
I0824 08:55:36.003232 17213 net.cpp:395] relu4_2 -> conv4_2 (in-place)
I0824 08:55:36.003258 17213 net.cpp:150] Setting up relu4_2
I0824 08:55:36.003262 17213 net.cpp:157] Top shape: 1 512 38 38 (739328)
I0824 08:55:36.003264 17213 net.cpp:165] Memory required for data: 203387968
I0824 08:55:36.003266 17213 layer_factory.hpp:77] Creating layer conv4_3
I0824 08:55:36.003274 17213 net.cpp:100] Creating Layer conv4_3
I0824 08:55:36.003276 17213 net.cpp:434] conv4_3 <- conv4_2
I0824 08:55:36.003278 17213 net.cpp:408] conv4_3 -> conv4_3
I0824 08:55:36.013478 17213 net.cpp:150] Setting up conv4_3
I0824 08:55:36.013702 17213 net.cpp:157] Top shape: 1 512 38 38 (739328)
I0824 08:55:36.013712 17213 net.cpp:165] Memory required for data: 206345280
I0824 08:55:36.013720 17213 layer_factory.hpp:77] Creating layer relu4_3
I0824 08:55:36.013731 17213 net.cpp:100] Creating Layer relu4_3
I0824 08:55:36.013736 17213 net.cpp:434] relu4_3 <- conv4_3
I0824 08:55:36.013741 17213 net.cpp:395] relu4_3 -> conv4_3 (in-place)
I0824 08:55:36.013747 17213 net.cpp:150] Setting up relu4_3
I0824 08:55:36.013749 17213 net.cpp:157] Top shape: 1 512 38 38 (739328)
I0824 08:55:36.013751 17213 net.cpp:165] Memory required for data: 209302592
I0824 08:55:36.013753 17213 layer_factory.hpp:77] Creating layer conv4_3_relu4_3_0_split
I0824 08:55:36.014472 17213 net.cpp:100] Creating Layer conv4_3_relu4_3_0_split
I0824 08:55:36.014478 17213 net.cpp:434] conv4_3_relu4_3_0_split <- conv4_3
I0824 08:55:36.014482 17213 net.cpp:408] conv4_3_relu4_3_0_split -> conv4_3_relu4_3_0_split_0
I0824 08:55:36.014487 17213 net.cpp:408] conv4_3_relu4_3_0_split -> conv4_3_relu4_3_0_split_1
I0824 08:55:36.014587 17213 net.cpp:150] Setting up conv4_3_relu4_3_0_split
I0824 08:55:36.014590 17213 net.cpp:157] Top shape: 1 512 38 38 (739328)
I0824 08:55:36.014592 17213 net.cpp:157] Top shape: 1 512 38 38 (739328)
I0824 08:55:36.014595 17213 net.cpp:165] Memory required for data: 215217216
I0824 08:55:36.014596 17213 layer_factory.hpp:77] Creating layer pool4
I0824 08:55:36.014607 17213 net.cpp:100] Creating Layer pool4
I0824 08:55:36.014611 17213 net.cpp:434] pool4 <- conv4_3_relu4_3_0_split_0
I0824 08:55:36.014616 17213 net.cpp:408] pool4 -> pool4
I0824 08:55:36.015034 17213 net.cpp:150] Setting up pool4
I0824 08:55:36.015040 17213 net.cpp:157] Top shape: 1 512 19 19 (184832)
I0824 08:55:36.015043 17213 net.cpp:165] Memory required for data: 215956544
I0824 08:55:36.015045 17213 layer_factory.hpp:77] Creating layer conv5_1
I0824 08:55:36.015054 17213 net.cpp:100] Creating Layer conv5_1
I0824 08:55:36.015056 17213 net.cpp:434] conv5_1 <- pool4
I0824 08:55:36.015059 17213 net.cpp:408] conv5_1 -> conv5_1
I0824 08:55:36.024462 17213 net.cpp:150] Setting up conv5_1
I0824 08:55:36.024483 17213 net.cpp:157] Top shape: 1 512 19 19 (184832)
I0824 08:55:36.024487 17213 net.cpp:165] Memory required for data: 216695872
I0824 08:55:36.024492 17213 layer_factory.hpp:77] Creating layer relu5_1
I0824 08:55:36.024497 17213 net.cpp:100] Creating Layer relu5_1
I0824 08:55:36.024499 17213 net.cpp:434] relu5_1 <- conv5_1
I0824 08:55:36.024502 17213 net.cpp:395] relu5_1 -> conv5_1 (in-place)
I0824 08:55:36.024507 17213 net.cpp:150] Setting up relu5_1
I0824 08:55:36.024508 17213 net.cpp:157] Top shape: 1 512 19 19 (184832)
I0824 08:55:36.024510 17213 net.cpp:165] Memory required for data: 217435200
I0824 08:55:36.024513 17213 layer_factory.hpp:77] Creating layer conv5_2
I0824 08:55:36.024516 17213 net.cpp:100] Creating Layer conv5_2
I0824 08:55:36.024518 17213 net.cpp:434] conv5_2 <- conv5_1
I0824 08:55:36.024523 17213 net.cpp:408] conv5_2 -> conv5_2
I0824 08:55:36.033540 17213 net.cpp:150] Setting up conv5_2
I0824 08:55:36.033560 17213 net.cpp:157] Top shape: 1 512 19 19 (184832)
I0824 08:55:36.033563 17213 net.cpp:165] Memory required for data: 218174528
I0824 08:55:36.033571 17213 layer_factory.hpp:77] Creating layer relu5_2
I0824 08:55:36.033576 17213 net.cpp:100] Creating Layer relu5_2
I0824 08:55:36.033578 17213 net.cpp:434] relu5_2 <- conv5_2
I0824 08:55:36.033581 17213 net.cpp:395] relu5_2 -> conv5_2 (in-place)
I0824 08:55:36.033586 17213 net.cpp:150] Setting up relu5_2
I0824 08:55:36.033588 17213 net.cpp:157] Top shape: 1 512 19 19 (184832)
I0824 08:55:36.033591 17213 net.cpp:165] Memory required for data: 218913856
I0824 08:55:36.033591 17213 layer_factory.hpp:77] Creating layer conv5_3
I0824 08:55:36.033596 17213 net.cpp:100] Creating Layer conv5_3
I0824 08:55:36.033598 17213 net.cpp:434] conv5_3 <- conv5_2
I0824 08:55:36.033601 17213 net.cpp:408] conv5_3 -> conv5_3
I0824 08:55:36.043900 17213 net.cpp:150] Setting up conv5_3
I0824 08:55:36.043924 17213 net.cpp:157] Top shape: 1 512 19 19 (184832)
I0824 08:55:36.043928 17213 net.cpp:165] Memory required for data: 219653184
I0824 08:55:36.043934 17213 layer_factory.hpp:77] Creating layer relu5_3
I0824 08:55:36.043946 17213 net.cpp:100] Creating Layer relu5_3
I0824 08:55:36.043948 17213 net.cpp:434] relu5_3 <- conv5_3
I0824 08:55:36.043951 17213 net.cpp:395] relu5_3 -> conv5_3 (in-place)
I0824 08:55:36.043956 17213 net.cpp:150] Setting up relu5_3
I0824 08:55:36.043958 17213 net.cpp:157] Top shape: 1 512 19 19 (184832)
I0824 08:55:36.043960 17213 net.cpp:165] Memory required for data: 220392512
I0824 08:55:36.043963 17213 layer_factory.hpp:77] Creating layer pool5
I0824 08:55:36.043967 17213 net.cpp:100] Creating Layer pool5
I0824 08:55:36.044030 17213 net.cpp:434] pool5 <- conv5_3
I0824 08:55:36.044035 17213 net.cpp:408] pool5 -> pool5
I0824 08:55:36.044054 17213 net.cpp:150] Setting up pool5
I0824 08:55:36.044160 17213 net.cpp:157] Top shape: 1 512 19 19 (184832)
I0824 08:55:36.044163 17213 net.cpp:165] Memory required for data: 221131840
I0824 08:55:36.044165 17213 layer_factory.hpp:77] Creating layer fc6
I0824 08:55:36.044171 17213 net.cpp:100] Creating Layer fc6
I0824 08:55:36.044173 17213 net.cpp:434] fc6 <- pool5
I0824 08:55:36.044178 17213 net.cpp:408] fc6 -> fc6
I0824 08:55:36.059473 17213 net.cpp:150] Setting up fc6
I0824 08:55:36.059497 17213 net.cpp:157] Top shape: 1 1024 19 19 (369664)
I0824 08:55:36.059501 17213 net.cpp:165] Memory required for data: 222610496
I0824 08:55:36.059507 17213 layer_factory.hpp:77] Creating layer relu6
I0824 08:55:36.059511 17213 net.cpp:100] Creating Layer relu6
I0824 08:55:36.059514 17213 net.cpp:434] relu6 <- fc6
I0824 08:55:36.059518 17213 net.cpp:395] relu6 -> fc6 (in-place)
I0824 08:55:36.059522 17213 net.cpp:150] Setting up relu6
I0824 08:55:36.059525 17213 net.cpp:157] Top shape: 1 1024 19 19 (369664)
I0824 08:55:36.059526 17213 net.cpp:165] Memory required for data: 224089152
I0824 08:55:36.059527 17213 layer_factory.hpp:77] Creating layer fc7
I0824 08:55:36.059535 17213 net.cpp:100] Creating Layer fc7
I0824 08:55:36.059535 17213 net.cpp:434] fc7 <- fc6
I0824 08:55:36.059538 17213 net.cpp:408] fc7 -> fc7
I0824 08:55:36.063437 17213 net.cpp:150] Setting up fc7
I0824 08:55:36.063455 17213 net.cpp:157] Top shape: 1 1024 19 19 (369664)
I0824 08:55:36.063460 17213 net.cpp:165] Memory required for data: 225567808
I0824 08:55:36.063465 17213 layer_factory.hpp:77] Creating layer relu7
I0824 08:55:36.063469 17213 net.cpp:100] Creating Layer relu7
I0824 08:55:36.063472 17213 net.cpp:434] relu7 <- fc7
I0824 08:55:36.063475 17213 net.cpp:395] relu7 -> fc7 (in-place)
I0824 08:55:36.063480 17213 net.cpp:150] Setting up relu7
I0824 08:55:36.063481 17213 net.cpp:157] Top shape: 1 1024 19 19 (369664)
I0824 08:55:36.063483 17213 net.cpp:165] Memory required for data: 227046464
I0824 08:55:36.063485 17213 layer_factory.hpp:77] Creating layer fc7_relu7_0_split
I0824 08:55:36.063488 17213 net.cpp:100] Creating Layer fc7_relu7_0_split
I0824 08:55:36.063490 17213 net.cpp:434] fc7_relu7_0_split <- fc7
I0824 08:55:36.063493 17213 net.cpp:408] fc7_relu7_0_split -> fc7_relu7_0_split_0
I0824 08:55:36.063496 17213 net.cpp:408] fc7_relu7_0_split -> fc7_relu7_0_split_1
I0824 08:55:36.063505 17213 net.cpp:408] fc7_relu7_0_split -> fc7_relu7_0_split_2
I0824 08:55:36.063508 17213 net.cpp:408] fc7_relu7_0_split -> fc7_relu7_0_split_3
I0824 08:55:36.063511 17213 net.cpp:150] Setting up fc7_relu7_0_split
I0824 08:55:36.063513 17213 net.cpp:157] Top shape: 1 1024 19 19 (369664)
I0824 08:55:36.063515 17213 net.cpp:157] Top shape: 1 1024 19 19 (369664)
I0824 08:55:36.063517 17213 net.cpp:157] Top shape: 1 1024 19 19 (369664)
I0824 08:55:36.063519 17213 net.cpp:157] Top shape: 1 1024 19 19 (369664)
I0824 08:55:36.063521 17213 net.cpp:165] Memory required for data: 232961088
I0824 08:55:36.063524 17213 layer_factory.hpp:77] Creating layer conv6_1
I0824 08:55:36.063530 17213 net.cpp:100] Creating Layer conv6_1
I0824 08:55:36.063532 17213 net.cpp:434] conv6_1 <- fc7_relu7_0_split_0
I0824 08:55:36.063535 17213 net.cpp:408] conv6_1 -> conv6_1
I0824 08:55:36.064489 17213 net.cpp:150] Setting up conv6_1
I0824 08:55:36.064496 17213 net.cpp:157] Top shape: 1 256 19 19 (92416)
I0824 08:55:36.064498 17213 net.cpp:165] Memory required for data: 233330752
I0824 08:55:36.064502 17213 layer_factory.hpp:77] Creating layer conv6_1_relu
I0824 08:55:36.064507 17213 net.cpp:100] Creating Layer conv6_1_relu
I0824 08:55:36.064508 17213 net.cpp:434] conv6_1_relu <- conv6_1
I0824 08:55:36.064512 17213 net.cpp:395] conv6_1_relu -> conv6_1 (in-place)
I0824 08:55:36.064514 17213 net.cpp:150] Setting up conv6_1_relu
I0824 08:55:36.064517 17213 net.cpp:157] Top shape: 1 256 19 19 (92416)
I0824 08:55:36.064518 17213 net.cpp:165] Memory required for data: 233700416
I0824 08:55:36.064535 17213 layer_factory.hpp:77] Creating layer conv6_2
I0824 08:55:36.064539 17213 net.cpp:100] Creating Layer conv6_2
I0824 08:55:36.064541 17213 net.cpp:434] conv6_2 <- conv6_1
I0824 08:55:36.064543 17213 net.cpp:408] conv6_2 -> conv6_2
I0824 08:55:36.068607 17213 net.cpp:150] Setting up conv6_2
I0824 08:55:36.068617 17213 net.cpp:157] Top shape: 1 512 10 10 (51200)
I0824 08:55:36.068621 17213 net.cpp:165] Memory required for data: 233905216
I0824 08:55:36.068723 17213 layer_factory.hpp:77] Creating layer conv6_2_relu
I0824 08:55:36.068739 17213 net.cpp:100] Creating Layer conv6_2_relu
I0824 08:55:36.068742 17213 net.cpp:434] conv6_2_relu <- conv6_2
I0824 08:55:36.068747 17213 net.cpp:395] conv6_2_relu -> conv6_2 (in-place)
I0824 08:55:36.068750 17213 net.cpp:150] Setting up conv6_2_relu
I0824 08:55:36.068753 17213 net.cpp:157] Top shape: 1 512 10 10 (51200)
I0824 08:55:36.068754 17213 net.cpp:165] Memory required for data: 234110016
I0824 08:55:36.068756 17213 layer_factory.hpp:77] Creating layer conv6_2_conv6_2_relu_0_split
I0824 08:55:36.068758 17213 net.cpp:100] Creating Layer conv6_2_conv6_2_relu_0_split
I0824 08:55:36.068760 17213 net.cpp:434] conv6_2_conv6_2_relu_0_split <- conv6_2
I0824 08:55:36.068763 17213 net.cpp:408] conv6_2_conv6_2_relu_0_split -> conv6_2_conv6_2_relu_0_split_0
I0824 08:55:36.068765 17213 net.cpp:408] conv6_2_conv6_2_relu_0_split -> conv6_2_conv6_2_relu_0_split_1
I0824 08:55:36.068768 17213 net.cpp:408] conv6_2_conv6_2_relu_0_split -> conv6_2_conv6_2_relu_0_split_2
I0824 08:55:36.068770 17213 net.cpp:408] conv6_2_conv6_2_relu_0_split -> conv6_2_conv6_2_relu_0_split_3
I0824 08:55:36.068773 17213 net.cpp:150] Setting up conv6_2_conv6_2_relu_0_split
I0824 08:55:36.068775 17213 net.cpp:157] Top shape: 1 512 10 10 (51200)
I0824 08:55:36.068778 17213 net.cpp:157] Top shape: 1 512 10 10 (51200)
I0824 08:55:36.068779 17213 net.cpp:157] Top shape: 1 512 10 10 (51200)
I0824 08:55:36.068780 17213 net.cpp:157] Top shape: 1 512 10 10 (51200)
I0824 08:55:36.068782 17213 net.cpp:165] Memory required for data: 234929216
I0824 08:55:36.068784 17213 layer_factory.hpp:77] Creating layer conv7_1
I0824 08:55:36.068790 17213 net.cpp:100] Creating Layer conv7_1
I0824 08:55:36.068792 17213 net.cpp:434] conv7_1 <- conv6_2_conv6_2_relu_0_split_0
I0824 08:55:36.068797 17213 net.cpp:408] conv7_1 -> conv7_1
I0824 08:55:36.069015 17213 net.cpp:150] Setting up conv7_1
I0824 08:55:36.069016 17213 net.cpp:157] Top shape: 1 128 10 10 (12800)
I0824 08:55:36.069018 17213 net.cpp:165] Memory required for data: 234980416
I0824 08:55:36.069020 17213 layer_factory.hpp:77] Creating layer conv7_1_relu
I0824 08:55:36.069023 17213 net.cpp:100] Creating Layer conv7_1_relu
I0824 08:55:36.069026 17213 net.cpp:434] conv7_1_relu <- conv7_1
I0824 08:55:36.069029 17213 net.cpp:395] conv7_1_relu -> conv7_1 (in-place)
I0824 08:55:36.069031 17213 net.cpp:150] Setting up conv7_1_relu
I0824 08:55:36.069033 17213 net.cpp:157] Top shape: 1 128 10 10 (12800)
I0824 08:55:36.069036 17213 net.cpp:165] Memory required for data: 235031616
I0824 08:55:36.069036 17213 layer_factory.hpp:77] Creating layer conv7_2
I0824 08:55:36.069042 17213 net.cpp:100] Creating Layer conv7_2
I0824 08:55:36.069044 17213 net.cpp:434] conv7_2 <- conv7_1
I0824 08:55:36.069046 17213 net.cpp:408] conv7_2 -> conv7_2
I0824 08:55:36.070264 17213 net.cpp:150] Setting up conv7_2
I0824 08:55:36.070298 17213 net.cpp:157] Top shape: 1 256 5 5 (6400)
I0824 08:55:36.070303 17213 net.cpp:165] Memory required for data: 235057216
I0824 08:55:36.070307 17213 layer_factory.hpp:77] Creating layer conv7_2_relu
I0824 08:55:36.070310 17213 net.cpp:100] Creating Layer conv7_2_relu
I0824 08:55:36.070312 17213 net.cpp:434] conv7_2_relu <- conv7_2
I0824 08:55:36.070314 17213 net.cpp:395] conv7_2_relu -> conv7_2 (in-place)
I0824 08:55:36.070317 17213 net.cpp:150] Setting up conv7_2_relu
I0824 08:55:36.070319 17213 net.cpp:157] Top shape: 1 256 5 5 (6400)
I0824 08:55:36.070322 17213 net.cpp:165] Memory required for data: 235082816
I0824 08:55:36.070336 17213 layer_factory.hpp:77] Creating layer conv7_2_conv7_2_relu_0_split
I0824 08:55:36.070344 17213 net.cpp:100] Creating Layer conv7_2_conv7_2_relu_0_split
I0824 08:55:36.070348 17213 net.cpp:434] conv7_2_conv7_2_relu_0_split <- conv7_2
I0824 08:55:36.070350 17213 net.cpp:408] conv7_2_conv7_2_relu_0_split -> conv7_2_conv7_2_relu_0_split_0
I0824 08:55:36.070354 17213 net.cpp:408] conv7_2_conv7_2_relu_0_split -> conv7_2_conv7_2_relu_0_split_1
I0824 08:55:36.070356 17213 net.cpp:408] conv7_2_conv7_2_relu_0_split -> conv7_2_conv7_2_relu_0_split_2
I0824 08:55:36.070359 17213 net.cpp:408] conv7_2_conv7_2_relu_0_split -> conv7_2_conv7_2_relu_0_split_3
I0824 08:55:36.070362 17213 net.cpp:150] Setting up conv7_2_conv7_2_relu_0_split
I0824 08:55:36.070364 17213 net.cpp:157] Top shape: 1 256 5 5 (6400)
I0824 08:55:36.070366 17213 net.cpp:157] Top shape: 1 256 5 5 (6400)
I0824 08:55:36.070369 17213 net.cpp:157] Top shape: 1 256 5 5 (6400)
I0824 08:55:36.070370 17213 net.cpp:157] Top shape: 1 256 5 5 (6400)
I0824 08:55:36.070372 17213 net.cpp:165] Memory required for data: 235185216
I0824 08:55:36.070374 17213 layer_factory.hpp:77] Creating layer conv8_1
I0824 08:55:36.070379 17213 net.cpp:100] Creating Layer conv8_1
I0824 08:55:36.070381 17213 net.cpp:434] conv8_1 <- conv7_2_conv7_2_relu_0_split_0
I0824 08:55:36.070384 17213 net.cpp:408] conv8_1 -> conv8_1
I0824 08:55:36.070499 17213 net.cpp:150] Setting up conv8_1
I0824 08:55:36.070503 17213 net.cpp:157] Top shape: 1 128 5 5 (3200)
I0824 08:55:36.070505 17213 net.cpp:165] Memory required for data: 235198016
I0824 08:55:36.070508 17213 layer_factory.hpp:77] Creating layer conv8_1_relu
I0824 08:55:36.070510 17213 net.cpp:100] Creating Layer conv8_1_relu
I0824 08:55:36.070513 17213 net.cpp:434] conv8_1_relu <- conv8_1
I0824 08:55:36.070515 17213 net.cpp:395] conv8_1_relu -> conv8_1 (in-place)
I0824 08:55:36.070518 17213 net.cpp:150] Setting up conv8_1_relu
I0824 08:55:36.070519 17213 net.cpp:157] Top shape: 1 128 5 5 (3200)
I0824 08:55:36.070521 17213 net.cpp:165] Memory required for data: 235210816
I0824 08:55:36.070523 17213 layer_factory.hpp:77] Creating layer conv8_2
I0824 08:55:36.070525 17213 net.cpp:100] Creating Layer conv8_2
I0824 08:55:36.070526 17213 net.cpp:434] conv8_2 <- conv8_1
I0824 08:55:36.070529 17213 net.cpp:408] conv8_2 -> conv8_2
I0824 08:55:36.071539 17213 net.cpp:150] Setting up conv8_2
I0824 08:55:36.071547 17213 net.cpp:157] Top shape: 1 256 3 3 (2304)
I0824 08:55:36.071549 17213 net.cpp:165] Memory required for data: 235220032
I0824 08:55:36.071554 17213 layer_factory.hpp:77] Creating layer conv8_2_relu
I0824 08:55:36.071558 17213 net.cpp:100] Creating Layer conv8_2_relu
I0824 08:55:36.071560 17213 net.cpp:434] conv8_2_relu <- conv8_2
I0824 08:55:36.071563 17213 net.cpp:395] conv8_2_relu -> conv8_2 (in-place)
I0824 08:55:36.071566 17213 net.cpp:150] Setting up conv8_2_relu
I0824 08:55:36.071568 17213 net.cpp:157] Top shape: 1 256 3 3 (2304)
I0824 08:55:36.071569 17213 net.cpp:165] Memory required for data: 235229248
I0824 08:55:36.071571 17213 layer_factory.hpp:77] Creating layer conv8_2_conv8_2_relu_0_split
I0824 08:55:36.071575 17213 net.cpp:100] Creating Layer conv8_2_conv8_2_relu_0_split
I0824 08:55:36.071576 17213 net.cpp:434] conv8_2_conv8_2_relu_0_split <- conv8_2
I0824 08:55:36.071579 17213 net.cpp:408] conv8_2_conv8_2_relu_0_split -> conv8_2_conv8_2_relu_0_split_0
I0824 08:55:36.071583 17213 net.cpp:408] conv8_2_conv8_2_relu_0_split -> conv8_2_conv8_2_relu_0_split_1
I0824 08:55:36.071585 17213 net.cpp:408] conv8_2_conv8_2_relu_0_split -> conv8_2_conv8_2_relu_0_split_2
I0824 08:55:36.071588 17213 net.cpp:408] conv8_2_conv8_2_relu_0_split -> conv8_2_conv8_2_relu_0_split_3
I0824 08:55:36.071592 17213 net.cpp:150] Setting up conv8_2_conv8_2_relu_0_split
I0824 08:55:36.071593 17213 net.cpp:157] Top shape: 1 256 3 3 (2304)
I0824 08:55:36.071595 17213 net.cpp:157] Top shape: 1 256 3 3 (2304)
I0824 08:55:36.071597 17213 net.cpp:157] Top shape: 1 256 3 3 (2304)
I0824 08:55:36.071599 17213 net.cpp:157] Top shape: 1 256 3 3 (2304)
I0824 08:55:36.071611 17213 net.cpp:165] Memory required for data: 235266112
I0824 08:55:36.071614 17213 layer_factory.hpp:77] Creating layer conv9_1
I0824 08:55:36.071617 17213 net.cpp:100] Creating Layer conv9_1
I0824 08:55:36.071619 17213 net.cpp:434] conv9_1 <- conv8_2_conv8_2_relu_0_split_0
I0824 08:55:36.071622 17213 net.cpp:408] conv9_1 -> conv9_1
I0824 08:55:36.071761 17213 net.cpp:150] Setting up conv9_1
I0824 08:55:36.071763 17213 net.cpp:157] Top shape: 1 128 3 3 (1152)
I0824 08:55:36.071766 17213 net.cpp:165] Memory required for data: 235270720
I0824 08:55:36.071769 17213 layer_factory.hpp:77] Creating layer conv9_1_relu
I0824 08:55:36.071771 17213 net.cpp:100] Creating Layer conv9_1_relu
I0824 08:55:36.071774 17213 net.cpp:434] conv9_1_relu <- conv9_1
I0824 08:55:36.071775 17213 net.cpp:395] conv9_1_relu -> conv9_1 (in-place)
I0824 08:55:36.071777 17213 net.cpp:150] Setting up conv9_1_relu
I0824 08:55:36.071779 17213 net.cpp:157] Top shape: 1 128 3 3 (1152)
I0824 08:55:36.071781 17213 net.cpp:165] Memory required for data: 235275328
I0824 08:55:36.071782 17213 layer_factory.hpp:77] Creating layer conv9_2
I0824 08:55:36.071791 17213 net.cpp:100] Creating Layer conv9_2
I0824 08:55:36.071794 17213 net.cpp:434] conv9_2 <- conv9_1
I0824 08:55:36.071795 17213 net.cpp:408] conv9_2 -> conv9_2
I0824 08:55:36.072827 17213 net.cpp:150] Setting up conv9_2
I0824 08:55:36.072834 17213 net.cpp:157] Top shape: 1 256 1 1 (256)
I0824 08:55:36.072836 17213 net.cpp:165] Memory required for data: 235276352
I0824 08:55:36.072842 17213 layer_factory.hpp:77] Creating layer conv9_2_relu
I0824 08:55:36.072850 17213 net.cpp:100] Creating Layer conv9_2_relu
I0824 08:55:36.072852 17213 net.cpp:434] conv9_2_relu <- conv9_2
I0824 08:55:36.072855 17213 net.cpp:395] conv9_2_relu -> conv9_2 (in-place)
I0824 08:55:36.072860 17213 net.cpp:150] Setting up conv9_2_relu
I0824 08:55:36.072860 17213 net.cpp:157] Top shape: 1 256 1 1 (256)
I0824 08:55:36.072862 17213 net.cpp:165] Memory required for data: 235277376
I0824 08:55:36.072866 17213 layer_factory.hpp:77] Creating layer conv9_2_conv9_2_relu_0_split
I0824 08:55:36.072871 17213 net.cpp:100] Creating Layer conv9_2_conv9_2_relu_0_split
I0824 08:55:36.072872 17213 net.cpp:434] conv9_2_conv9_2_relu_0_split <- conv9_2
I0824 08:55:36.072875 17213 net.cpp:408] conv9_2_conv9_2_relu_0_split -> conv9_2_conv9_2_relu_0_split_0
I0824 08:55:36.072877 17213 net.cpp:408] conv9_2_conv9_2_relu_0_split -> conv9_2_conv9_2_relu_0_split_1
I0824 08:55:36.072880 17213 net.cpp:408] conv9_2_conv9_2_relu_0_split -> conv9_2_conv9_2_relu_0_split_2
I0824 08:55:36.072883 17213 net.cpp:150] Setting up conv9_2_conv9_2_relu_0_split
I0824 08:55:36.072885 17213 net.cpp:157] Top shape: 1 256 1 1 (256)
I0824 08:55:36.072887 17213 net.cpp:157] Top shape: 1 256 1 1 (256)
I0824 08:55:36.072888 17213 net.cpp:157] Top shape: 1 256 1 1 (256)
I0824 08:55:36.072890 17213 net.cpp:165] Memory required for data: 235280448
I0824 08:55:36.072892 17213 layer_factory.hpp:77] Creating layer conv4_3_norm
I0824 08:55:36.072902 17213 net.cpp:100] Creating Layer conv4_3_norm
I0824 08:55:36.072906 17213 net.cpp:434] conv4_3_norm <- conv4_3_relu4_3_0_split_1
I0824 08:55:36.072907 17213 net.cpp:408] conv4_3_norm -> conv4_3_norm
I0824 08:55:36.072930 17213 net.cpp:150] Setting up conv4_3_norm
I0824 08:55:36.072932 17213 net.cpp:157] Top shape: 1 512 38 38 (739328)
I0824 08:55:36.072934 17213 net.cpp:165] Memory required for data: 238237760
I0824 08:55:36.072937 17213 layer_factory.hpp:77] Creating layer conv4_3_norm_conv4_3_norm_0_split
I0824 08:55:36.072939 17213 net.cpp:100] Creating Layer conv4_3_norm_conv4_3_norm_0_split
I0824 08:55:36.072942 17213 net.cpp:434] conv4_3_norm_conv4_3_norm_0_split <- conv4_3_norm
I0824 08:55:36.072943 17213 net.cpp:408] conv4_3_norm_conv4_3_norm_0_split -> conv4_3_norm_conv4_3_norm_0_split_0
I0824 08:55:36.072947 17213 net.cpp:408] conv4_3_norm_conv4_3_norm_0_split -> conv4_3_norm_conv4_3_norm_0_split_1
I0824 08:55:36.072949 17213 net.cpp:408] conv4_3_norm_conv4_3_norm_0_split -> conv4_3_norm_conv4_3_norm_0_split_2
I0824 08:55:36.072952 17213 net.cpp:150] Setting up conv4_3_norm_conv4_3_norm_0_split
I0824 08:55:36.072968 17213 net.cpp:157] Top shape: 1 512 38 38 (739328)
I0824 08:55:36.072974 17213 net.cpp:157] Top shape: 1 512 38 38 (739328)
I0824 08:55:36.072978 17213 net.cpp:157] Top shape: 1 512 38 38 (739328)
I0824 08:55:36.072979 17213 net.cpp:165] Memory required for data: 247109696
I0824 08:55:36.072983 17213 layer_factory.hpp:77] Creating layer conv4_3_norm_mbox_loc
I0824 08:55:36.072988 17213 net.cpp:100] Creating Layer conv4_3_norm_mbox_loc
I0824 08:55:36.072990 17213 net.cpp:434] conv4_3_norm_mbox_loc <- conv4_3_norm_conv4_3_norm_0_split_0
I0824 08:55:36.072994 17213 net.cpp:408] conv4_3_norm_mbox_loc -> conv4_3_norm_mbox_loc
I0824 08:55:36.073232 17213 net.cpp:150] Setting up conv4_3_norm_mbox_loc
I0824 08:55:36.073235 17213 net.cpp:157] Top shape: 1 16 38 38 (23104)
I0824 08:55:36.073236 17213 net.cpp:165] Memory required for data: 247202112
I0824 08:55:36.073241 17213 layer_factory.hpp:77] Creating layer conv4_3_norm_mbox_loc_perm
I0824 08:55:36.073251 17213 net.cpp:100] Creating Layer conv4_3_norm_mbox_loc_perm
I0824 08:55:36.073256 17213 net.cpp:434] conv4_3_norm_mbox_loc_perm <- conv4_3_norm_mbox_loc
I0824 08:55:36.073258 17213 net.cpp:408] conv4_3_norm_mbox_loc_perm -> conv4_3_norm_mbox_loc_perm
I0824 08:55:36.073267 17213 net.cpp:150] Setting up conv4_3_norm_mbox_loc_perm
I0824 08:55:36.073269 17213 net.cpp:157] Top shape: 1 38 38 16 (23104)
I0824 08:55:36.073271 17213 net.cpp:165] Memory required for data: 247294528
I0824 08:55:36.073272 17213 layer_factory.hpp:77] Creating layer conv4_3_norm_mbox_loc_flat
I0824 08:55:36.073276 17213 net.cpp:100] Creating Layer conv4_3_norm_mbox_loc_flat
I0824 08:55:36.073277 17213 net.cpp:434] conv4_3_norm_mbox_loc_flat <- conv4_3_norm_mbox_loc_perm
I0824 08:55:36.073279 17213 net.cpp:408] conv4_3_norm_mbox_loc_flat -> conv4_3_norm_mbox_loc_flat
I0824 08:55:36.073307 17213 net.cpp:150] Setting up conv4_3_norm_mbox_loc_flat
I0824 08:55:36.073310 17213 net.cpp:157] Top shape: 1 23104 (23104)
I0824 08:55:36.073315 17213 net.cpp:165] Memory required for data: 247386944
I0824 08:55:36.073319 17213 layer_factory.hpp:77] Creating layer conv4_3_norm_mbox_conf
I0824 08:55:36.073328 17213 net.cpp:100] Creating Layer conv4_3_norm_mbox_conf
I0824 08:55:36.073329 17213 net.cpp:434] conv4_3_norm_mbox_conf <- conv4_3_norm_conv4_3_norm_0_split_1
I0824 08:55:36.073331 17213 net.cpp:408] conv4_3_norm_mbox_conf -> conv4_3_norm_mbox_conf
I0824 08:55:36.074970 17213 net.cpp:150] Setting up conv4_3_norm_mbox_conf
I0824 08:55:36.074980 17213 net.cpp:157] Top shape: 1 84 38 38 (121296)
I0824 08:55:36.074985 17213 net.cpp:165] Memory required for data: 247872128
I0824 08:55:36.074990 17213 layer_factory.hpp:77] Creating layer conv4_3_norm_mbox_conf_perm
I0824 08:55:36.074995 17213 net.cpp:100] Creating Layer conv4_3_norm_mbox_conf_perm
I0824 08:55:36.074997 17213 net.cpp:434] conv4_3_norm_mbox_conf_perm <- conv4_3_norm_mbox_conf
I0824 08:55:36.075002 17213 net.cpp:408] conv4_3_norm_mbox_conf_perm -> conv4_3_norm_mbox_conf_perm
I0824 08:55:36.075014 17213 net.cpp:150] Setting up conv4_3_norm_mbox_conf_perm
I0824 08:55:36.075016 17213 net.cpp:157] Top shape: 1 38 38 84 (121296)
I0824 08:55:36.075018 17213 net.cpp:165] Memory required for data: 248357312
I0824 08:55:36.075021 17213 layer_factory.hpp:77] Creating layer conv4_3_norm_mbox_conf_flat
I0824 08:55:36.075026 17213 net.cpp:100] Creating Layer conv4_3_norm_mbox_conf_flat
I0824 08:55:36.075027 17213 net.cpp:434] conv4_3_norm_mbox_conf_flat <- conv4_3_norm_mbox_conf_perm
I0824 08:55:36.075029 17213 net.cpp:408] conv4_3_norm_mbox_conf_flat -> conv4_3_norm_mbox_conf_flat
I0824 08:55:36.075033 17213 net.cpp:150] Setting up conv4_3_norm_mbox_conf_flat
I0824 08:55:36.075034 17213 net.cpp:157] Top shape: 1 121296 (121296)
I0824 08:55:36.075037 17213 net.cpp:165] Memory required for data: 248842496
I0824 08:55:36.075039 17213 layer_factory.hpp:77] Creating layer conv4_3_norm_mbox_priorbox
I0824 08:55:36.075044 17213 net.cpp:100] Creating Layer conv4_3_norm_mbox_priorbox
I0824 08:55:36.075065 17213 net.cpp:434] conv4_3_norm_mbox_priorbox <- conv4_3_norm_conv4_3_norm_0_split_2
I0824 08:55:36.075069 17213 net.cpp:434] conv4_3_norm_mbox_priorbox <- data_data_0_split_1
I0824 08:55:36.075073 17213 net.cpp:408] conv4_3_norm_mbox_priorbox -> conv4_3_norm_mbox_priorbox
I0824 08:55:36.075089 17213 net.cpp:150] Setting up conv4_3_norm_mbox_priorbox
I0824 08:55:36.075093 17213 net.cpp:157] Top shape: 1 2 23104 (46208)
I0824 08:55:36.075095 17213 net.cpp:165] Memory required for data: 249027328
I0824 08:55:36.075098 17213 layer_factory.hpp:77] Creating layer fc7_mbox_loc
I0824 08:55:36.075104 17213 net.cpp:100] Creating Layer fc7_mbox_loc
I0824 08:55:36.075107 17213 net.cpp:434] fc7_mbox_loc <- fc7_relu7_0_split_1
I0824 08:55:36.075110 17213 net.cpp:408] fc7_mbox_loc -> fc7_mbox_loc
I0824 08:55:36.075992 17213 net.cpp:150] Setting up fc7_mbox_loc
I0824 08:55:36.076000 17213 net.cpp:157] Top shape: 1 24 19 19 (8664)
I0824 08:55:36.076005 17213 net.cpp:165] Memory required for data: 249061984
I0824 08:55:36.076010 17213 layer_factory.hpp:77] Creating layer fc7_mbox_loc_perm
I0824 08:55:36.076015 17213 net.cpp:100] Creating Layer fc7_mbox_loc_perm
I0824 08:55:36.076018 17213 net.cpp:434] fc7_mbox_loc_perm <- fc7_mbox_loc
I0824 08:55:36.076021 17213 net.cpp:408] fc7_mbox_loc_perm -> fc7_mbox_loc_perm
I0824 08:55:36.076030 17213 net.cpp:150] Setting up fc7_mbox_loc_perm
I0824 08:55:36.076031 17213 net.cpp:157] Top shape: 1 19 19 24 (8664)
I0824 08:55:36.076033 17213 net.cpp:165] Memory required for data: 249096640
I0824 08:55:36.076038 17213 layer_factory.hpp:77] Creating layer fc7_mbox_loc_flat
I0824 08:55:36.076043 17213 net.cpp:100] Creating Layer fc7_mbox_loc_flat
I0824 08:55:36.076045 17213 net.cpp:434] fc7_mbox_loc_flat <- fc7_mbox_loc_perm
I0824 08:55:36.076048 17213 net.cpp:408] fc7_mbox_loc_flat -> fc7_mbox_loc_flat
I0824 08:55:36.076052 17213 net.cpp:150] Setting up fc7_mbox_loc_flat
I0824 08:55:36.076054 17213 net.cpp:157] Top shape: 1 8664 (8664)
I0824 08:55:36.076056 17213 net.cpp:165] Memory required for data: 249131296
I0824 08:55:36.076057 17213 layer_factory.hpp:77] Creating layer fc7_mbox_conf
I0824 08:55:36.076062 17213 net.cpp:100] Creating Layer fc7_mbox_conf
I0824 08:55:36.076064 17213 net.cpp:434] fc7_mbox_conf <- fc7_relu7_0_split_2
I0824 08:55:36.076068 17213 net.cpp:408] fc7_mbox_conf -> fc7_mbox_conf
I0824 08:55:36.080488 17213 net.cpp:150] Setting up fc7_mbox_conf
I0824 08:55:36.080504 17213 net.cpp:157] Top shape: 1 126 19 19 (45486)
I0824 08:55:36.080508 17213 net.cpp:165] Memory required for data: 249313240
I0824 08:55:36.080514 17213 layer_factory.hpp:77] Creating layer fc7_mbox_conf_perm
I0824 08:55:36.080520 17213 net.cpp:100] Creating Layer fc7_mbox_conf_perm
I0824 08:55:36.080524 17213 net.cpp:434] fc7_mbox_conf_perm <- fc7_mbox_conf
I0824 08:55:36.080528 17213 net.cpp:408] fc7_mbox_conf_perm -> fc7_mbox_conf_perm
I0824 08:55:36.080535 17213 net.cpp:150] Setting up fc7_mbox_conf_perm
I0824 08:55:36.080538 17213 net.cpp:157] Top shape: 1 19 19 126 (45486)
I0824 08:55:36.080539 17213 net.cpp:165] Memory required for data: 249495184
I0824 08:55:36.080543 17213 layer_factory.hpp:77] Creating layer fc7_mbox_conf_flat
I0824 08:55:36.080546 17213 net.cpp:100] Creating Layer fc7_mbox_conf_flat
I0824 08:55:36.080549 17213 net.cpp:434] fc7_mbox_conf_flat <- fc7_mbox_conf_perm
I0824 08:55:36.080550 17213 net.cpp:408] fc7_mbox_conf_flat -> fc7_mbox_conf_flat
I0824 08:55:36.080554 17213 net.cpp:150] Setting up fc7_mbox_conf_flat
I0824 08:55:36.080555 17213 net.cpp:157] Top shape: 1 45486 (45486)
I0824 08:55:36.080557 17213 net.cpp:165] Memory required for data: 249677128
I0824 08:55:36.080559 17213 layer_factory.hpp:77] Creating layer fc7_mbox_priorbox
I0824 08:55:36.080562 17213 net.cpp:100] Creating Layer fc7_mbox_priorbox
I0824 08:55:36.080564 17213 net.cpp:434] fc7_mbox_priorbox <- fc7_relu7_0_split_3
I0824 08:55:36.080567 17213 net.cpp:434] fc7_mbox_priorbox <- data_data_0_split_2
I0824 08:55:36.080570 17213 net.cpp:408] fc7_mbox_priorbox -> fc7_mbox_priorbox
I0824 08:55:36.080574 17213 net.cpp:150] Setting up fc7_mbox_priorbox
I0824 08:55:36.080591 17213 net.cpp:157] Top shape: 1 2 8664 (17328)
I0824 08:55:36.080595 17213 net.cpp:165] Memory required for data: 249746440
I0824 08:55:36.080595 17213 layer_factory.hpp:77] Creating layer conv6_2_mbox_loc
I0824 08:55:36.080602 17213 net.cpp:100] Creating Layer conv6_2_mbox_loc
I0824 08:55:36.080605 17213 net.cpp:434] conv6_2_mbox_loc <- conv6_2_conv6_2_relu_0_split_1
I0824 08:55:36.080607 17213 net.cpp:408] conv6_2_mbox_loc -> conv6_2_mbox_loc
I0824 08:55:36.081046 17213 net.cpp:150] Setting up conv6_2_mbox_loc
I0824 08:55:36.081051 17213 net.cpp:157] Top shape: 1 24 10 10 (2400)
I0824 08:55:36.081054 17213 net.cpp:165] Memory required for data: 249756040
I0824 08:55:36.081058 17213 layer_factory.hpp:77] Creating layer conv6_2_mbox_loc_perm
I0824 08:55:36.081063 17213 net.cpp:100] Creating Layer conv6_2_mbox_loc_perm
I0824 08:55:36.081065 17213 net.cpp:434] conv6_2_mbox_loc_perm <- conv6_2_mbox_loc
I0824 08:55:36.081068 17213 net.cpp:408] conv6_2_mbox_loc_perm -> conv6_2_mbox_loc_perm
I0824 08:55:36.081073 17213 net.cpp:150] Setting up conv6_2_mbox_loc_perm
I0824 08:55:36.081075 17213 net.cpp:157] Top shape: 1 10 10 24 (2400)
I0824 08:55:36.081077 17213 net.cpp:165] Memory required for data: 249765640
I0824 08:55:36.081079 17213 layer_factory.hpp:77] Creating layer conv6_2_mbox_loc_flat
I0824 08:55:36.081081 17213 net.cpp:100] Creating Layer conv6_2_mbox_loc_flat
I0824 08:55:36.081082 17213 net.cpp:434] conv6_2_mbox_loc_flat <- conv6_2_mbox_loc_perm
I0824 08:55:36.081086 17213 net.cpp:408] conv6_2_mbox_loc_flat -> conv6_2_mbox_loc_flat
I0824 08:55:36.081089 17213 net.cpp:150] Setting up conv6_2_mbox_loc_flat
I0824 08:55:36.081090 17213 net.cpp:157] Top shape: 1 2400 (2400)
I0824 08:55:36.081092 17213 net.cpp:165] Memory required for data: 249775240
I0824 08:55:36.081094 17213 layer_factory.hpp:77] Creating layer conv6_2_mbox_conf
I0824 08:55:36.081099 17213 net.cpp:100] Creating Layer conv6_2_mbox_conf
I0824 08:55:36.081100 17213 net.cpp:434] conv6_2_mbox_conf <- conv6_2_conv6_2_relu_0_split_2
I0824 08:55:36.081102 17213 net.cpp:408] conv6_2_mbox_conf -> conv6_2_mbox_conf
I0824 08:55:36.083194 17213 net.cpp:150] Setting up conv6_2_mbox_conf
I0824 08:55:36.083200 17213 net.cpp:157] Top shape: 1 126 10 10 (12600)
I0824 08:55:36.083204 17213 net.cpp:165] Memory required for data: 249825640
I0824 08:55:36.083210 17213 layer_factory.hpp:77] Creating layer conv6_2_mbox_conf_perm
I0824 08:55:36.083214 17213 net.cpp:100] Creating Layer conv6_2_mbox_conf_perm
I0824 08:55:36.083216 17213 net.cpp:434] conv6_2_mbox_conf_perm <- conv6_2_mbox_conf
I0824 08:55:36.083220 17213 net.cpp:408] conv6_2_mbox_conf_perm -> conv6_2_mbox_conf_perm
I0824 08:55:36.083225 17213 net.cpp:150] Setting up conv6_2_mbox_conf_perm
I0824 08:55:36.083227 17213 net.cpp:157] Top shape: 1 10 10 126 (12600)
I0824 08:55:36.083230 17213 net.cpp:165] Memory required for data: 249876040
I0824 08:55:36.083231 17213 layer_factory.hpp:77] Creating layer conv6_2_mbox_conf_flat
I0824 08:55:36.083235 17213 net.cpp:100] Creating Layer conv6_2_mbox_conf_flat
I0824 08:55:36.083236 17213 net.cpp:434] conv6_2_mbox_conf_flat <- conv6_2_mbox_conf_perm
I0824 08:55:36.083238 17213 net.cpp:408] conv6_2_mbox_conf_flat -> conv6_2_mbox_conf_flat
I0824 08:55:36.083241 17213 net.cpp:150] Setting up conv6_2_mbox_conf_flat
I0824 08:55:36.083243 17213 net.cpp:157] Top shape: 1 12600 (12600)
I0824 08:55:36.083245 17213 net.cpp:165] Memory required for data: 249926440
I0824 08:55:36.083246 17213 layer_factory.hpp:77] Creating layer conv6_2_mbox_priorbox
I0824 08:55:36.083250 17213 net.cpp:100] Creating Layer conv6_2_mbox_priorbox
I0824 08:55:36.083252 17213 net.cpp:434] conv6_2_mbox_priorbox <- conv6_2_conv6_2_relu_0_split_3
I0824 08:55:36.083256 17213 net.cpp:434] conv6_2_mbox_priorbox <- data_data_0_split_3
I0824 08:55:36.083258 17213 net.cpp:408] conv6_2_mbox_priorbox -> conv6_2_mbox_priorbox
I0824 08:55:36.083263 17213 net.cpp:150] Setting up conv6_2_mbox_priorbox
I0824 08:55:36.083264 17213 net.cpp:157] Top shape: 1 2 2400 (4800)
I0824 08:55:36.083278 17213 net.cpp:165] Memory required for data: 249945640
I0824 08:55:36.083281 17213 layer_factory.hpp:77] Creating layer conv7_2_mbox_loc
I0824 08:55:36.083287 17213 net.cpp:100] Creating Layer conv7_2_mbox_loc
I0824 08:55:36.083288 17213 net.cpp:434] conv7_2_mbox_loc <- conv7_2_conv7_2_relu_0_split_1
I0824 08:55:36.083292 17213 net.cpp:408] conv7_2_mbox_loc -> conv7_2_mbox_loc
I0824 08:55:36.083482 17213 net.cpp:150] Setting up conv7_2_mbox_loc
I0824 08:55:36.083484 17213 net.cpp:157] Top shape: 1 24 5 5 (600)
I0824 08:55:36.083487 17213 net.cpp:165] Memory required for data: 249948040
I0824 08:55:36.083489 17213 layer_factory.hpp:77] Creating layer conv7_2_mbox_loc_perm
I0824 08:55:36.083494 17213 net.cpp:100] Creating Layer conv7_2_mbox_loc_perm
I0824 08:55:36.083498 17213 net.cpp:434] conv7_2_mbox_loc_perm <- conv7_2_mbox_loc
I0824 08:55:36.083499 17213 net.cpp:408] conv7_2_mbox_loc_perm -> conv7_2_mbox_loc_perm
I0824 08:55:36.083504 17213 net.cpp:150] Setting up conv7_2_mbox_loc_perm
I0824 08:55:36.083506 17213 net.cpp:157] Top shape: 1 5 5 24 (600)
I0824 08:55:36.083508 17213 net.cpp:165] Memory required for data: 249950440
I0824 08:55:36.083511 17213 layer_factory.hpp:77] Creating layer conv7_2_mbox_loc_flat
I0824 08:55:36.083513 17213 net.cpp:100] Creating Layer conv7_2_mbox_loc_flat
I0824 08:55:36.083515 17213 net.cpp:434] conv7_2_mbox_loc_flat <- conv7_2_mbox_loc_perm
I0824 08:55:36.083518 17213 net.cpp:408] conv7_2_mbox_loc_flat -> conv7_2_mbox_loc_flat
I0824 08:55:36.083521 17213 net.cpp:150] Setting up conv7_2_mbox_loc_flat
I0824 08:55:36.083523 17213 net.cpp:157] Top shape: 1 600 (600)
I0824 08:55:36.083524 17213 net.cpp:165] Memory required for data: 249952840
I0824 08:55:36.083528 17213 layer_factory.hpp:77] Creating layer conv7_2_mbox_conf
I0824 08:55:36.083531 17213 net.cpp:100] Creating Layer conv7_2_mbox_conf
I0824 08:55:36.083534 17213 net.cpp:434] conv7_2_mbox_conf <- conv7_2_conv7_2_relu_0_split_2
I0824 08:55:36.083535 17213 net.cpp:408] conv7_2_mbox_conf -> conv7_2_mbox_conf
I0824 08:55:36.084581 17213 net.cpp:150] Setting up conv7_2_mbox_conf
I0824 08:55:36.084587 17213 net.cpp:157] Top shape: 1 126 5 5 (3150)
I0824 08:55:36.084589 17213 net.cpp:165] Memory required for data: 249965440
I0824 08:55:36.084594 17213 layer_factory.hpp:77] Creating layer conv7_2_mbox_conf_perm
I0824 08:55:36.084599 17213 net.cpp:100] Creating Layer conv7_2_mbox_conf_perm
I0824 08:55:36.084601 17213 net.cpp:434] conv7_2_mbox_conf_perm <- conv7_2_mbox_conf
I0824 08:55:36.084604 17213 net.cpp:408] conv7_2_mbox_conf_perm -> conv7_2_mbox_conf_perm
I0824 08:55:36.084609 17213 net.cpp:150] Setting up conv7_2_mbox_conf_perm
I0824 08:55:36.084611 17213 net.cpp:157] Top shape: 1 5 5 126 (3150)
I0824 08:55:36.084614 17213 net.cpp:165] Memory required for data: 249978040
I0824 08:55:36.084615 17213 layer_factory.hpp:77] Creating layer conv7_2_mbox_conf_flat
I0824 08:55:36.084619 17213 net.cpp:100] Creating Layer conv7_2_mbox_conf_flat
I0824 08:55:36.084621 17213 net.cpp:434] conv7_2_mbox_conf_flat <- conv7_2_mbox_conf_perm
I0824 08:55:36.084657 17213 net.cpp:408] conv7_2_mbox_conf_flat -> conv7_2_mbox_conf_flat
I0824 08:55:36.084667 17213 net.cpp:150] Setting up conv7_2_mbox_conf_flat
I0824 08:55:36.084669 17213 net.cpp:157] Top shape: 1 3150 (3150)
I0824 08:55:36.084671 17213 net.cpp:165] Memory required for data: 249990640
I0824 08:55:36.084676 17213 layer_factory.hpp:77] Creating layer conv7_2_mbox_priorbox
I0824 08:55:36.084681 17213 net.cpp:100] Creating Layer conv7_2_mbox_priorbox
I0824 08:55:36.084684 17213 net.cpp:434] conv7_2_mbox_priorbox <- conv7_2_conv7_2_relu_0_split_3
I0824 08:55:36.084686 17213 net.cpp:434] conv7_2_mbox_priorbox <- data_data_0_split_4
I0824 08:55:36.084689 17213 net.cpp:408] conv7_2_mbox_priorbox -> conv7_2_mbox_priorbox
I0824 08:55:36.084694 17213 net.cpp:150] Setting up conv7_2_mbox_priorbox
I0824 08:55:36.084695 17213 net.cpp:157] Top shape: 1 2 600 (1200)
I0824 08:55:36.084697 17213 net.cpp:165] Memory required for data: 249995440
I0824 08:55:36.084699 17213 layer_factory.hpp:77] Creating layer conv8_2_mbox_loc
I0824 08:55:36.084715 17213 net.cpp:100] Creating Layer conv8_2_mbox_loc
I0824 08:55:36.084718 17213 net.cpp:434] conv8_2_mbox_loc <- conv8_2_conv8_2_relu_0_split_1
I0824 08:55:36.084722 17213 net.cpp:408] conv8_2_mbox_loc -> conv8_2_mbox_loc
I0824 08:55:36.084859 17213 net.cpp:150] Setting up conv8_2_mbox_loc
I0824 08:55:36.084863 17213 net.cpp:157] Top shape: 1 16 3 3 (144)
I0824 08:55:36.084865 17213 net.cpp:165] Memory required for data: 249996016
I0824 08:55:36.084872 17213 layer_factory.hpp:77] Creating layer conv8_2_mbox_loc_perm
I0824 08:55:36.084877 17213 net.cpp:100] Creating Layer conv8_2_mbox_loc_perm
I0824 08:55:36.084878 17213 net.cpp:434] conv8_2_mbox_loc_perm <- conv8_2_mbox_loc
I0824 08:55:36.084882 17213 net.cpp:408] conv8_2_mbox_loc_perm -> conv8_2_mbox_loc_perm
I0824 08:55:36.084889 17213 net.cpp:150] Setting up conv8_2_mbox_loc_perm
I0824 08:55:36.084892 17213 net.cpp:157] Top shape: 1 3 3 16 (144)
I0824 08:55:36.084893 17213 net.cpp:165] Memory required for data: 249996592
I0824 08:55:36.084897 17213 layer_factory.hpp:77] Creating layer conv8_2_mbox_loc_flat
I0824 08:55:36.084899 17213 net.cpp:100] Creating Layer conv8_2_mbox_loc_flat
I0824 08:55:36.084903 17213 net.cpp:434] conv8_2_mbox_loc_flat <- conv8_2_mbox_loc_perm
I0824 08:55:36.084905 17213 net.cpp:408] conv8_2_mbox_loc_flat -> conv8_2_mbox_loc_flat
I0824 08:55:36.084908 17213 net.cpp:150] Setting up conv8_2_mbox_loc_flat
I0824 08:55:36.084909 17213 net.cpp:157] Top shape: 1 144 (144)
I0824 08:55:36.084911 17213 net.cpp:165] Memory required for data: 249997168
I0824 08:55:36.084913 17213 layer_factory.hpp:77] Creating layer conv8_2_mbox_conf
I0824 08:55:36.084918 17213 net.cpp:100] Creating Layer conv8_2_mbox_conf
I0824 08:55:36.084920 17213 net.cpp:434] conv8_2_mbox_conf <- conv8_2_conv8_2_relu_0_split_2
I0824 08:55:36.084923 17213 net.cpp:408] conv8_2_mbox_conf -> conv8_2_mbox_conf
I0824 08:55:36.085583 17213 net.cpp:150] Setting up conv8_2_mbox_conf
I0824 08:55:36.085587 17213 net.cpp:157] Top shape: 1 84 3 3 (756)
I0824 08:55:36.085588 17213 net.cpp:165] Memory required for data: 250000192
I0824 08:55:36.085592 17213 layer_factory.hpp:77] Creating layer conv8_2_mbox_conf_perm
I0824 08:55:36.085595 17213 net.cpp:100] Creating Layer conv8_2_mbox_conf_perm
I0824 08:55:36.085597 17213 net.cpp:434] conv8_2_mbox_conf_perm <- conv8_2_mbox_conf
I0824 08:55:36.085600 17213 net.cpp:408] conv8_2_mbox_conf_perm -> conv8_2_mbox_conf_perm
I0824 08:55:36.085608 17213 net.cpp:150] Setting up conv8_2_mbox_conf_perm
I0824 08:55:36.085613 17213 net.cpp:157] Top shape: 1 3 3 84 (756)
I0824 08:55:36.085615 17213 net.cpp:165] Memory required for data: 250003216
I0824 08:55:36.085616 17213 layer_factory.hpp:77] Creating layer conv8_2_mbox_conf_flat
I0824 08:55:36.085621 17213 net.cpp:100] Creating Layer conv8_2_mbox_conf_flat
I0824 08:55:36.085654 17213 net.cpp:434] conv8_2_mbox_conf_flat <- conv8_2_mbox_conf_perm
I0824 08:55:36.085661 17213 net.cpp:408] conv8_2_mbox_conf_flat -> conv8_2_mbox_conf_flat
I0824 08:55:36.085665 17213 net.cpp:150] Setting up conv8_2_mbox_conf_flat
I0824 08:55:36.085667 17213 net.cpp:157] Top shape: 1 756 (756)
I0824 08:55:36.085670 17213 net.cpp:165] Memory required for data: 250006240
I0824 08:55:36.085672 17213 layer_factory.hpp:77] Creating layer conv8_2_mbox_priorbox
I0824 08:55:36.085676 17213 net.cpp:100] Creating Layer conv8_2_mbox_priorbox
I0824 08:55:36.085678 17213 net.cpp:434] conv8_2_mbox_priorbox <- conv8_2_conv8_2_relu_0_split_3
I0824 08:55:36.085681 17213 net.cpp:434] conv8_2_mbox_priorbox <- data_data_0_split_5
I0824 08:55:36.085683 17213 net.cpp:408] conv8_2_mbox_priorbox -> conv8_2_mbox_priorbox
I0824 08:55:36.085688 17213 net.cpp:150] Setting up conv8_2_mbox_priorbox
I0824 08:55:36.085690 17213 net.cpp:157] Top shape: 1 2 144 (288)
I0824 08:55:36.085691 17213 net.cpp:165] Memory required for data: 250007392
I0824 08:55:36.085693 17213 layer_factory.hpp:77] Creating layer conv9_2_mbox_loc
I0824 08:55:36.085700 17213 net.cpp:100] Creating Layer conv9_2_mbox_loc
I0824 08:55:36.085711 17213 net.cpp:434] conv9_2_mbox_loc <- conv9_2_conv9_2_relu_0_split_0
I0824 08:55:36.085714 17213 net.cpp:408] conv9_2_mbox_loc -> conv9_2_mbox_loc
I0824 08:55:36.085842 17213 net.cpp:150] Setting up conv9_2_mbox_loc
I0824 08:55:36.085844 17213 net.cpp:157] Top shape: 1 16 1 1 (16)
I0824 08:55:36.085846 17213 net.cpp:165] Memory required for data: 250007456
I0824 08:55:36.085850 17213 layer_factory.hpp:77] Creating layer conv9_2_mbox_loc_perm
I0824 08:55:36.085852 17213 net.cpp:100] Creating Layer conv9_2_mbox_loc_perm
I0824 08:55:36.085855 17213 net.cpp:434] conv9_2_mbox_loc_perm <- conv9_2_mbox_loc
I0824 08:55:36.085856 17213 net.cpp:408] conv9_2_mbox_loc_perm -> conv9_2_mbox_loc_perm
I0824 08:55:36.085860 17213 net.cpp:150] Setting up conv9_2_mbox_loc_perm
I0824 08:55:36.085862 17213 net.cpp:157] Top shape: 1 1 1 16 (16)
I0824 08:55:36.085865 17213 net.cpp:165] Memory required for data: 250007520
I0824 08:55:36.085865 17213 layer_factory.hpp:77] Creating layer conv9_2_mbox_loc_flat
I0824 08:55:36.085868 17213 net.cpp:100] Creating Layer conv9_2_mbox_loc_flat
I0824 08:55:36.085870 17213 net.cpp:434] conv9_2_mbox_loc_flat <- conv9_2_mbox_loc_perm
I0824 08:55:36.085872 17213 net.cpp:408] conv9_2_mbox_loc_flat -> conv9_2_mbox_loc_flat
I0824 08:55:36.085876 17213 net.cpp:150] Setting up conv9_2_mbox_loc_flat
I0824 08:55:36.085877 17213 net.cpp:157] Top shape: 1 16 (16)
I0824 08:55:36.085880 17213 net.cpp:165] Memory required for data: 250007584
I0824 08:55:36.085881 17213 layer_factory.hpp:77] Creating layer conv9_2_mbox_conf
I0824 08:55:36.085886 17213 net.cpp:100] Creating Layer conv9_2_mbox_conf
I0824 08:55:36.085892 17213 net.cpp:434] conv9_2_mbox_conf <- conv9_2_conv9_2_relu_0_split_1
I0824 08:55:36.085897 17213 net.cpp:408] conv9_2_mbox_conf -> conv9_2_mbox_conf
I0824 08:55:36.086540 17213 net.cpp:150] Setting up conv9_2_mbox_conf
I0824 08:55:36.086544 17213 net.cpp:157] Top shape: 1 84 1 1 (84)
I0824 08:55:36.086545 17213 net.cpp:165] Memory required for data: 250007920
I0824 08:55:36.086549 17213 layer_factory.hpp:77] Creating layer conv9_2_mbox_conf_perm
I0824 08:55:36.086552 17213 net.cpp:100] Creating Layer conv9_2_mbox_conf_perm
I0824 08:55:36.086555 17213 net.cpp:434] conv9_2_mbox_conf_perm <- conv9_2_mbox_conf
I0824 08:55:36.086556 17213 net.cpp:408] conv9_2_mbox_conf_perm -> conv9_2_mbox_conf_perm
I0824 08:55:36.086560 17213 net.cpp:150] Setting up conv9_2_mbox_conf_perm
I0824 08:55:36.086562 17213 net.cpp:157] Top shape: 1 1 1 84 (84)
I0824 08:55:36.086565 17213 net.cpp:165] Memory required for data: 250008256
I0824 08:55:36.086565 17213 layer_factory.hpp:77] Creating layer conv9_2_mbox_conf_flat
I0824 08:55:36.086567 17213 net.cpp:100] Creating Layer conv9_2_mbox_conf_flat
I0824 08:55:36.086570 17213 net.cpp:434] conv9_2_mbox_conf_flat <- conv9_2_mbox_conf_perm
I0824 08:55:36.086571 17213 net.cpp:408] conv9_2_mbox_conf_flat -> conv9_2_mbox_conf_flat
I0824 08:55:36.086575 17213 net.cpp:150] Setting up conv9_2_mbox_conf_flat
I0824 08:55:36.086576 17213 net.cpp:157] Top shape: 1 84 (84)
I0824 08:55:36.086578 17213 net.cpp:165] Memory required for data: 250008592
I0824 08:55:36.086580 17213 layer_factory.hpp:77] Creating layer conv9_2_mbox_priorbox
I0824 08:55:36.086583 17213 net.cpp:100] Creating Layer conv9_2_mbox_priorbox
I0824 08:55:36.086584 17213 net.cpp:434] conv9_2_mbox_priorbox <- conv9_2_conv9_2_relu_0_split_2
I0824 08:55:36.086586 17213 net.cpp:434] conv9_2_mbox_priorbox <- data_data_0_split_6
I0824 08:55:36.086589 17213 net.cpp:408] conv9_2_mbox_priorbox -> conv9_2_mbox_priorbox
I0824 08:55:36.086591 17213 net.cpp:150] Setting up conv9_2_mbox_priorbox
I0824 08:55:36.086593 17213 net.cpp:157] Top shape: 1 2 16 (32)
I0824 08:55:36.086596 17213 net.cpp:165] Memory required for data: 250008720
I0824 08:55:36.086596 17213 layer_factory.hpp:77] Creating layer mbox_loc
I0824 08:55:36.086618 17213 net.cpp:100] Creating Layer mbox_loc
I0824 08:55:36.086623 17213 net.cpp:434] mbox_loc <- conv4_3_norm_mbox_loc_flat
I0824 08:55:36.086726 17213 net.cpp:434] mbox_loc <- fc7_mbox_loc_flat
I0824 08:55:36.086740 17213 net.cpp:434] mbox_loc <- conv6_2_mbox_loc_flat
I0824 08:55:36.086742 17213 net.cpp:434] mbox_loc <- conv7_2_mbox_loc_flat
I0824 08:55:36.086745 17213 net.cpp:434] mbox_loc <- conv8_2_mbox_loc_flat
I0824 08:55:36.086747 17213 net.cpp:434] mbox_loc <- conv9_2_mbox_loc_flat
I0824 08:55:36.086751 17213 net.cpp:408] mbox_loc -> mbox_loc
I0824 08:55:36.086761 17213 net.cpp:150] Setting up mbox_loc
I0824 08:55:36.086763 17213 net.cpp:157] Top shape: 1 34928 (34928)
I0824 08:55:36.086766 17213 net.cpp:165] Memory required for data: 250148432
I0824 08:55:36.086767 17213 layer_factory.hpp:77] Creating layer mbox_conf
I0824 08:55:36.086771 17213 net.cpp:100] Creating Layer mbox_conf
I0824 08:55:36.086773 17213 net.cpp:434] mbox_conf <- conv4_3_norm_mbox_conf_flat
I0824 08:55:36.086776 17213 net.cpp:434] mbox_conf <- fc7_mbox_conf_flat
I0824 08:55:36.086777 17213 net.cpp:434] mbox_conf <- conv6_2_mbox_conf_flat
I0824 08:55:36.086781 17213 net.cpp:434] mbox_conf <- conv7_2_mbox_conf_flat
I0824 08:55:36.086782 17213 net.cpp:434] mbox_conf <- conv8_2_mbox_conf_flat
I0824 08:55:36.086784 17213 net.cpp:434] mbox_conf <- conv9_2_mbox_conf_flat
I0824 08:55:36.086786 17213 net.cpp:408] mbox_conf -> mbox_conf
I0824 08:55:36.086791 17213 net.cpp:150] Setting up mbox_conf
I0824 08:55:36.086792 17213 net.cpp:157] Top shape: 1 183372 (183372)
I0824 08:55:36.086794 17213 net.cpp:165] Memory required for data: 250881920
I0824 08:55:36.086796 17213 layer_factory.hpp:77] Creating layer mbox_priorbox
I0824 08:55:36.086802 17213 net.cpp:100] Creating Layer mbox_priorbox
I0824 08:55:36.086803 17213 net.cpp:434] mbox_priorbox <- conv4_3_norm_mbox_priorbox
I0824 08:55:36.086807 17213 net.cpp:434] mbox_priorbox <- fc7_mbox_priorbox
I0824 08:55:36.086808 17213 net.cpp:434] mbox_priorbox <- conv6_2_mbox_priorbox
I0824 08:55:36.086812 17213 net.cpp:434] mbox_priorbox <- conv7_2_mbox_priorbox
I0824 08:55:36.086813 17213 net.cpp:434] mbox_priorbox <- conv8_2_mbox_priorbox
I0824 08:55:36.086815 17213 net.cpp:434] mbox_priorbox <- conv9_2_mbox_priorbox
I0824 08:55:36.086817 17213 net.cpp:408] mbox_priorbox -> mbox_priorbox
I0824 08:55:36.086820 17213 net.cpp:150] Setting up mbox_priorbox
I0824 08:55:36.086822 17213 net.cpp:157] Top shape: 1 2 34928 (69856)
I0824 08:55:36.086823 17213 net.cpp:165] Memory required for data: 251161344
I0824 08:55:36.086825 17213 layer_factory.hpp:77] Creating layer mbox_loss
I0824 08:55:36.086840 17213 net.cpp:100] Creating Layer mbox_loss
I0824 08:55:36.086845 17213 net.cpp:434] mbox_loss <- mbox_loc
I0824 08:55:36.086848 17213 net.cpp:434] mbox_loss <- mbox_conf
I0824 08:55:36.086849 17213 net.cpp:434] mbox_loss <- mbox_priorbox
…
state {
  phase: TEST
}
layer {
  name: "data"
  type: "AnnotatedData"
  top: "data"
  top: "label"
  include {
    phase: TEST
  }
  transform_param {
    mean_value: 104
    mean_value: 117
    mean_value: 123
    resize_param {
      prob: 1
      resize_mode: WARP
      height: 300
      width: 300
      interp_mode: LINEAR
    }
  }
  data_param {
    source: "examples/VOC0712/VOC0712_test_lmdb"
    batch_size: 8
    backend: LMDB
  }
  annotated_data_param {
    batch_sampler {
    }
    label_map_file: "data/VOC0712/labelmap_voc.prototxt"
  }
}
layer {
  name: "conv1_1"
  type: "Convolution"
  bottom: "data"
  top: "conv1_1"
  param {
    lr_mult: 1
    decay_mult: 1
  }
  param {
    lr_mult: 2
    decay_mult: 0
  }
  convolution_param {
    num_output: 64
    pad: 1
    kernel_size: 3
    weight_filler {
      type: "xavier"
    }
    bias_filler {
      type: "constant"
      value: 0
    }
  }
}
layer {
  name: "relu1_1"
  type: "ReLU"
  bottom: "conv1_1"
  top: "conv1_1"
}
layer {
  name: "conv1_2"
  type: "Convolution"
  bottom: "conv1_1"
  top: "conv1_2"
  param {
    lr_mult: 1
    decay_mult: 1
  }
  param {
    lr_mult: 2
    decay_mult: 0
  }
  convolution_param {
    num_output: 64
    pad: 1
    kernel_size: 3
    weight_filler {
      type: "xavier"
    }
    bias_filler {
      type: "constant"
      value: 0
    }
  }
}
layer {
  name: "relu1_2"
  type: "ReLU"
  bottom: "conv1_2"
  top: "conv1_2"
}
layer {
  name: "pool1"
  type: "Pooling"
  bottom: "conv1_2"
  top: "pool1"
  pooling_param {
    pool: MAX
    kernel_size: 2
    stride: 2
  }
}
layer {
  name: "conv2_1"
  type: "Convolution"
  bottom: "pool1"
  top: "conv2_1"
  param {
    lr_mult: 1
    decay_mult: 1
  }
  param {
    lr_mult: 2
    decay_mult: 0
  }
  convolution_param {
    num_output: 128
    pad: 1
    kernel_size: 3
    weight_filler {
      type: "xavier"
    }
    bias_filler {
      type: "constant"
      value: 0
    }
  }
}
layer {
  name: "relu2_1"
  type: "ReLU"
  bottom: "conv2_1"
  top: "conv2_1"
}
layer {
  name: "conv2_2"
  type: "Convolution"
  bottom: "conv2_1"
  top: "conv2_2"
  param {
    lr_mult: 1
    decay_mult: 1
  }
  param {
    lr_mult: 2
    decay_mult: 0
  }
  convolution_param {
    num_output: 128
    pad: 1
    kernel_size: 3
    weight_filler {
      type: "xavier"
    }
    bias_filler {
      type: "constant"
      value: 0
    }
  }
}
layer {
  name: "relu2_2"
  type: "ReLU"
  bottom: "conv2_2"
  top: "conv2_2"
}
layer {
  name: "pool2"
  type: "Pooling"
  bottom: "conv2_2"
  top: "pool2"
  pooling_param {
    pool: MAX
    kernel_size: 2
    stride: 2
  }
}
layer {
  name: "conv3_1"
  type: "Convolution"
  bottom: "pool2"
  top: "conv3_1"
  param {
    lr_mult: 1
    decay_mult: 1
  }
  param {
    lr_mult: 2
    decay_mult: 0
  }
  convolution_param {
    num_output: 256
    pad: 1
    kernel_size: 3
    weight_filler {
      type: "xavier"
    }
    bias_filler {
      type: "constant"
      value: 0
    }
  }
}
layer {
  name: "relu3_1"
  type: "ReLU"
  bottom: "conv3_1"
  top: "conv3_1"
}
layer {
  name: "conv3_2"
  type: "Convolution"
  bottom: "conv3_1"
  top: "conv3_2"
  param {
    lr_mult: 1
    decay_mult: 1
  }
  param {
    lr_mult: 2
    decay_mult: 0
  }
  convolution_param {
    num_output: 256
    pad: 1
    kernel_size: 3
    weight_filler {
      type: "xavier"
    }
    bias_filler {
      type: "constant"
      value: 0
    }
  }
}
layer {
  name: "relu3_2"
  type: "ReLU"
  bottom: "conv3_2"
  top: "conv3_2"
}
layer {
  name: "conv3_3"
  type: "Convolution"
  bottom: "conv3_2"
  top: "conv3_3"
  param {
    lr_mult: 1
    decay_mult: 1
  }
  param {
    lr_mult: 2
    decay_mult: 0
  }
  convolution_param {
    num_output: 256
    pad: 1
    kernel_size: 3
    weight_filler {
      type: "xavier"
    }
    bias_filler {
      type: "constant"
      value: 0
    }
  }
}
layer {
  name: "relu3_3"
  type: "ReLU"
  bottom: "conv3_3"
  top: "conv3_3"
}
layer {
  name: "pool3"
  type: "Pooling"
  bottom: "conv3_3"
  top: "pool3"
  pooling_param {
    pool: MAX
    kernel_size: 2
    stride: 2
  }
}
layer {
  name: "conv4_1"
  type: "Convolution"
  bottom: "pool3"
  top: "conv4_1"
  param {
    lr_mult: 1
    decay_mult: 1
  }
  param {
    lr_mult: 2
    decay_mult: 0
  }
  convolution_param {
    num_output: 512
    pad: 1
    kernel_size: 3
    weight_filler {
      type: "xavier"
    }
    bias_filler {
      type: "constant"
      value: 0
    }
  }
}
layer {
  name: "relu4_1"
  type: "ReLU"
  bottom: "conv4_1"
  top: "conv4_1"
}
layer {
  name: "conv4_2"
  type: "Convolution"
  bottom: "conv4_1"
  top: "conv4_2"
  param {
    lr_mult: 1
    decay_mult: 1
  }
  param {
    lr_mult: 2
    decay_mult: 0
  }
  convolution_param {
    num_output: 512
    pad: 1
    kernel_size: 3
    weight_filler {
      type: "xavier"
    }
    bias_filler {
      type: "constant"
      value: 0
    }
  }
}
layer {
  name: "relu4_2"
  type: "ReLU"
  bottom: "conv4_2"
  top: "conv4_2"
}
layer {
  name: "conv4_3"
  type: "Convolution"
  bottom: "conv4_2"
  top: "conv4_3"
  param {
    lr_mult: 1
    decay_mult: 1
  }
  param {
    lr_mult: 2
    decay_mult: 0
  }
  convolution_param {
    num_output: 512
    pad: 1
    kernel_size: 3
    weight_filler {
      type: "xavier"
    }
    bias_filler {
      type: "constant"
      value: 0
    }
  }
}
layer {
  name: "relu4_3"
  type: "ReLU"
  bottom: "conv4_3"
  top: "conv4_3"
}
layer {
  name: "pool4"
  type: "Pooling"
  bottom: "conv4_3"
  top: "pool4"
  pooling_param {
    pool: MAX
    kernel_size: 2
    stride: 2
  }
}
layer {
  name: "conv5_1"
  type: "Convolution"
  bottom: "pool4"
  top: "conv5_1"
  param {
    lr_mult: 1
    decay_mult: 1
  }
  param {
    lr_mult: 2
    decay_mult: 0
  }
  convolution_param {
    num_output: 512
    pad: 1
    kernel_size: 3
    weight_filler {
      type: "xavier"
    }
    bias_filler {
      type: "constant"
      value: 0
    }
    dilation: 1
  }
}
layer {
  name: "relu5_1"
  type: "ReLU"
  bottom: "conv5_1"
  top: "conv5_1"
}
layer {
  name: "conv5_2"
  type: "Convolution"
  bottom: "conv5_1"
  top: "conv5_2"
  param {
    lr_mult: 1
    decay_mult: 1
  }
  param {
    lr_mult: 2
    decay_mult: 0
  }
  convolution_param {
    num_output: 512
    pad: 1
    kernel_size: 3
    weight_filler {
      type: "xavier"
    }
    bias_filler {
      type: "constant"
      value: 0
    }
    dilation: 1
  }
}
layer {
  name: "relu5_2"
  type: "ReLU"
  bottom: "conv5_2"
  top: "conv5_2"
}
layer {
  name: "conv5_3"
  type: "Convolution"
  bottom: "conv5_2"
  top: "conv5_3"
  param {
    lr_mult: 1
    decay_mult: 1
  }
  param {
    lr_mult: 2
    decay_mult: 0
  }
  convolution_param {
    num_output: 512
    pad: 1
    kernel_size: 3
    weight_filler {
      type: "xavier"
    }
    bias_filler {
      type: "constant"
      value: 0
    }
    dilation: 1
  }
}
layer {
  name: "relu5_3"
  type: "ReLU"
  bottom: "conv5_3"
  top: "conv5_3"
}
layer {
  name: "pool5"
  type: "Pooling"
  bottom: "conv5_3"
  top: "pool5"
  pooling_param {
    pool: MAX
    kernel_size: 3
    stride: 1
    pad: 1
  }
}
layer {
  name: "fc6"
  type: "Convolution"
  bottom: "pool5"
  top: "fc6"
  param {
    lr_mult: 1
    decay_mult: 1
  }
  param {
    lr_mult: 2
    decay_mult: 0
  }
  convolution_param {
    num_output: 1024
    pad: 6
    kernel_size: 3
    weight_filler {
      type: "xavier"
    }
    bias_filler {
      type: "constant"
      value: 0
    }
    dilation: 6
  }
}
layer {
  name: "relu6"
  type: "ReLU"
  bottom: "fc6"
  top: "fc6"
}
layer {
  name: "fc7"
  type: "Convolution"
  bottom: "fc6"
  top: "fc7"
  param {
    lr_mult: 1
    decay_mult: 1
  }
  param {
    lr_mult: 2
    decay_mult: 0
  }
  convolution_param {
    num_output: 1024
    kernel_size: 1
    weight_filler {
      type: "xavier"
    }
    bias_filler {
      type: "constant"
      value: 0
    }
  }
}
layer {
  name: "relu7"
  type: "ReLU"
  bottom: "fc7"
  top: "fc7"
}
layer {
  name: "conv6_1"
  type: "Convolution"
  bottom: "fc7"
  top: "conv6_1"
  param {
    lr_mult: 1
    decay_mult: 1
  }
  param {
    lr_mult: 2
    decay_mult: 0
  }
  convolution_param {
    num_output: 256
    pad: 0
    kernel_size: 1
    stride: 1
    weight_filler {
      type: "xavier"
    }
    bias_filler {
      type: "constant"
      value: 0
    }
  }
}
layer {
  name: "conv6_1_relu"
  type: "ReLU"
  bottom: "conv6_1"
  top: "conv6_1"
}
layer {
  name: "conv6_2"
  type: "Convolution"
  bottom: "conv6_1"
  top: "conv6_2"
  param {
    lr_mult: 1
    decay_mult: 1
  }
  param {
    lr_mult: 2
    decay_mult: 0
  }
  convolution_param {
    num_output: 512
    pad: 1
    kernel_size: 3
    stride: 2
    weight_filler {
      type: "xavier"
    }
    bias_filler {
      type: "constant"
      value: 0
    }
  }
}
layer {
  name: "conv6_2_relu"
  type: "ReLU"
  bottom: "conv6_2"
  top: "conv6_2"
}
layer {
  name: "conv7_1"
  type: "Convolution"
  bottom: "conv6_2"
  top: "conv7_1"
  param {
    lr_mult: 1
    decay_mult: 1
  }
  param {
    lr_mult: 2
    decay_mult: 0
  }
  convolution_param {
    num_output: 128
    pad: 0
    kernel_size: 1
    stride: 1
    weight_filler {
      type: "xavier"
    }
    bias_filler {
      type: "constant"
      value: 0
    }
  }
}
layer {
  name: "conv7_1_relu"
  type: "ReLU"
  bottom: "conv7_1"
  top: "conv7_1"
}
layer {
  name: "conv7_2"
  type: "Convolution"
  bottom: "conv7_1"
  top: "conv7_2"
  param {
    lr_mult: 1
    decay_mult: 1
  }
  param {
    lr_mult: 2
    decay_mult: 0
  }
  convolution_param {
    num_output: 256
    pad: 1
    kernel_size: 3
    stride: 2
    weight_filler {
      type: "xavier"
    }
    bias_filler {
      type: "constant"
      value: 0
    }
  }
}
layer {
  name: "conv7_2_relu"
  type: "ReLU"
  bottom: "conv7_2"
  top: "conv7_2"
}
layer {
  name: "conv8_1"
  type: "Convolution"
  bottom: "conv7_2"
  top: "conv8_1"
  param {
    lr_mult: 1
    decay_mult: 1
  }
  param {
    lr_mult: 2
    decay_mult: 0
  }
  convolution_param {
    num_output: 128
    pad: 0
    kernel_size: 1
    stride: 1
    weight_filler {
      type: "xavier"
    }
    bias_filler {
      type: "constant"
      value: 0
    }
  }
}
layer {
  name: "conv8_1_relu"
  type: "ReLU"
  bottom: "conv8_1"
  top: "conv8_1"
}
layer {
  name: "conv8_2"
  type: "Convolution"
  bottom: "conv8_1"
  top: "conv8_2"
  param {
    lr_mult: 1
    decay_mult: 1
  }
  param {
    lr_mult: 2
    decay_mult: 0
  }
  convolution_param {
    num_output: 256
    pad: 0
    kernel_size: 3
    stride: 1
    weight_filler {
      type: "xavier"
    }
    bias_filler {
      type: "constant"
      value: 0
    }
  }
}
layer {
  name: "conv8_2_relu"
  type: "ReLU"
  bottom: "conv8_2"
  top: "conv8_2"
}
layer {
  name: "conv9_1"
  type: "Convolution"
  bottom: "conv8_2"
  top: "conv9_1"
  param {
    lr_mult: 1
    decay_mult: 1
  }
  param {
    lr_mult: 2
    decay_mult: 0
  }
  convolution_param {
    num_output: 128
    pad: 0
    kernel_size: 1
    stride: 1
    weight_filler {
      type: "xavier"
    }
    bias_filler {
      type: "constant"
      value: 0
    }
  }
}
layer {
  name: "conv9_1_relu"
  type: "ReLU"
  bottom: "conv9_1"
  top: "conv9_1"
}
layer {
  name: "conv9_2"
  type: "Convolution"
  bottom: "conv9_1"
  top: "conv9_2"
  param {
    lr_mult: 1
    decay_mult: 1
  }
  param {
    lr_mult: 2
    decay_mult: 0
  }
  convolution_param {
    num_output: 256
    pad: 0
    kernel_size: 3
    stride: 1
    weight_filler {
      type: "xavier"
    }
    bias_filler {
      type: "constant"
      value: 0
    }
  }
}
layer {
  name: "conv9_2_relu"
  type: "ReLU"
  bottom: "conv9_2"
  top: "conv9_2"
}
layer {
  name: "conv4_3_norm"
  type: "Normalize"
  bottom: "conv4_3"
  top: "conv4_3_norm"
  norm_param {
    across_spatial: false
    scale_filler {
      type: "constant"
      value: 20
    }
    channel_shared: false
  }
}
layer {
  name: "conv4_3_norm_mbox_loc"
  type: "Convolution"
  bottom: "conv4_3_norm"
  top: "conv4_3_norm_mbox_loc"
  param {
    lr_mult: 1
    decay_mult: 1
  }
  param {
    lr_mult: 2
    decay_mult: 0
  }
  convolution_param {
    num_output: 16
    pad: 1
    kernel_size: 3
    stride: 1
    weight_filler {
      type: "xavier"
    }
    bias_filler {
      type: "constant"
      value: 0
    }
  }
}
layer {
  name: "conv4_3_norm_mbox_loc_perm"
  type: "Permute"
  bottom: "conv4_3_norm_mbox_loc"
  top: "conv4_3_norm_mbox_loc_perm"
  permute_param {
    order: 0
    order: 2
    order: 3
    order: 1
  }
}
layer {
  name: "conv4_3_norm_mbox_loc_flat"
  type: "Flatten"
  bottom: "conv4_3_norm_mbox_loc_perm"
  top: "conv4_3_norm_mbox_loc_flat"
  flatten_param {
    axis: 1
  }
}
layer {
  name: "conv4_3_norm_mbox_conf"
  type: "Convolution"
  bottom: "conv4_3_norm"
  top: "conv4_3_norm_mbox_conf"
  param {
    lr_mult: 1
    decay_mult: 1
  }
  param {
    lr_mult: 2
    decay_mult: 0
  }
  convolution_param {
    num_output: 84
    pad: 1
    kernel_size: 3
    stride: 1
    weight_filler {
      type: "xavier"
    }
    bias_filler {
      type: "constant"
      value: 0
    }
  }
}
layer {
  name: "conv4_3_norm_mbox_conf_perm"
  type: "Permute"
  bottom: "conv4_3_norm_mbox_conf"
  top: "conv4_3_norm_mbox_conf_perm"
  permute_param {
    order: 0
    order: 2
    order: 3
    order: 1
  }
}
layer {
  name: "conv4_3_norm_mbox_conf_flat"
  type: "Flatten"
  bottom: "conv4_3_norm_mbox_conf_perm"
  top: "conv4_3_norm_mbox_conf_flat"
  flatten_param {
    axis: 1
  }
}
layer {
  name: "conv4_3_norm_mbox_priorbox"
  type: "PriorBox"
  bottom: "conv4_3_norm"
  bottom: "data"
  top: "conv4_3_norm_mbox_priorbox"
  prior_box_param {
    min_size: 30
    max_size: 60
    aspect_ratio: 2
    flip: true
    clip: false
    variance: 0.1
    variance: 0.1
    variance: 0.2
    variance: 0.2
    step: 8
    offset: 0.5
  }
}
layer {
  name: "fc7_mbox_loc"
  type: "Convolution"
  bottom: "fc7"
  top: "fc7_mbox_loc"
  param {
    lr_mult: 1
    decay_mult: 1
  }
  param {
    lr_mult: 2
    decay_mult: 0
  }
  convolution_param {
    num_output: 24
    pad: 1
    kernel_size: 3
    stride: 1
    weight_filler {
      type: "xavier"
    }
    bias_filler {
      type: "constant"
      value: 0
    }
  }
}
layer {
  name: "fc7_mbox_loc_perm"
  type: "Permute"
  bottom: "fc7_mbox_loc"
  top: "fc7_mbox_loc_perm"
  permute_param {
    order: 0
    order: 2
    order: 3
    order: 1
  }
}
layer {
  name: "fc7_mbox_loc_flat"
  type: "Flatten"
  bottom: "fc7_mbox_loc_perm"
  top: "fc7_mbox_loc_flat"
  flatten_param {
    axis: 1
  }
}
layer {
  name: "fc7_mbox_conf"
  type: "Convolution"
  bottom: "fc7"
  top: "fc7_mbox_conf"
  param {
    lr_mult: 1
    decay_mult: 1
  }
  param {
    lr_mult: 2
    decay_mult: 0
  }
  convolution_param {
    num_output: 126
    pad: 1
    kernel_size: 3
    stride: 1
    weight_filler {
      type: "xavier"
    }
    bias_filler {
      type: "constant"
      value: 0
    }
  }
}
layer {
  name: "fc7_mbox_conf_perm"
  type: "Permute"
  bottom: "fc7_mbox_conf"
  top: "fc7_mbox_conf_perm"
  permute_param {
    order: 0
    order: 2
    order: 3
    order: 1
  }
}
layer {
  name: "fc7_mbox_conf_flat"
  type: "Flatten"
  bottom: "fc7_mbox_conf_perm"
  top: "fc7_mbox_conf_flat"
  flatten_param {
    axis: 1
  }
}
layer {
  name: "fc7_mbox_priorbox"
  type: "PriorBox"
  bottom: "fc7"
  bottom: "data"
  top: "fc7_mbox_priorbox"
  prior_box_param {
    min_size: 60
    max_size: 111
    aspect_ratio: 2
    aspect_ratio: 3
    flip: true
    clip: false
    variance: 0.1
    variance: 0.1
    variance: 0.2
    variance: 0.2
    step: 16
    offset: 0.5
  }
}
layer {
  name: "conv6_2_mbox_loc"
  type: "Convolution"
  bottom: "conv6_2"
  top: "conv6_2_mbox_loc"
  param {
    lr_mult: 1
    decay_mult: 1
  }
  param {
    lr_mult: 2
    decay_mult: 0
  }
  convolution_param {
    num_output: 24
    pad: 1
    kernel_size: 3
    stride: 1
    weight_filler {
      type: "xavier"
    }
    bias_filler {
      type: "constant"
      value: 0
    }
  }
}
layer {
  name: "conv6_2_mbox_loc_perm"
  type: "Permute"
  bottom: "conv6_2_mbox_loc"
  top: "conv6_2_mbox_loc_perm"
  permute_param {
    order: 0
    order: 2
    order: 3
    order: 1
  }
}
layer {
  name: "conv6_2_mbox_loc_flat"
  type: "Flatten"
  bottom: "conv6_2_mbox_loc_perm"
  top: "conv6_2_mbox_loc_flat"
  flatten_param {
    axis: 1
  }
}
layer {
  name: "conv6_2_mbox_conf"
  type: "Convolution"
  bottom: "conv6_2"
  top: "conv6_2_mbox_conf"
  param {
    lr_mult: 1
    decay_mult: 1
  }
  param {
    lr_mult: 2
    decay_mult: 0
  }
  convolution_param {
    num_output: 126
    pad: 1
    kernel_size: 3
    stride: 1
    weight_filler {
      type: "xavier"
    }
    bias_filler {
      type: "constant"
      value: 0
    }
  }
}
layer {
  name: "conv6_2_mbox_conf_perm"
  type: "Permute"
  bottom: "conv6_2_mbox_conf"
  top: "conv6_2_mbox_conf_perm"
  permute_param {
    order: 0
    order: 2
    order: 3
    order: 1
  }
}
layer {
  name: "conv6_2_mbox_conf_flat"
  type: "Flatten"
  bottom: "conv6_2_mbox_conf_perm"
  top: "conv6_2_mbox_conf_flat"
  flatten_param {
    axis: 1
  }
}
layer {
  name: "conv6_2_mbox_priorbox"
  type: "PriorBox"
  bottom: "conv6_2"
  bottom: "data"
  top: "conv6_2_mbox_priorbox"
  prior_box_param {
    min_size: 111
    max_size: 162
    aspect_ratio: 2
    aspect_ratio: 3
    flip: true
    clip: false
    variance: 0.1
    variance: 0.1
    variance: 0.2
    variance: 0.2
    step: 32
    offset: 0.5
  }
}
layer {
  name: "conv7_2_mbox_loc"
  type: "Convolution"
  bottom: "conv7_2"
  top: "conv7_2_mbox_loc"
  param {
    lr_mult: 1
    decay_mult: 1
  }
  param {
    lr_mult: 2
    decay_mult: 0
  }
  convolution_param {
    num_output: 24
    pad: 1
    kernel_size: 3
    stride: 1
    weight_filler {
      type: "xavier"
    }
    bias_filler {
      type: "constant"
      value: 0
    }
  }
}
layer {
  name: "conv7_2_mbox_loc_perm"
  type: "Permute"
  bottom: "conv7_2_mbox_loc"
  top: "conv7_2_mbox_loc_perm"
  permute_param {
    order: 0
    order: 2
    order: 3
    order: 1
  }
}
layer {
  name: "conv7_2_mbox_loc_flat"
  type: "Flatten"
  bottom: "conv7_2_mbox_loc_perm"
  top: "conv7_2_mbox_loc_flat"
  flatten_param {
    axis: 1
  }
}
layer {
  name: "conv7_2_mbox_conf"
  type: "Convolution"
  bottom: "conv7_2"
  top: "conv7_2_mbox_conf"
  param {
    lr_mult: 1
    decay_mult: 1
  }
  param {
    lr_mult: 2
    decay_mult: 0
  }
  convolution_param {
    num_output: 126
    pad: 1
    kernel_size: 3
    stride: 1
    weight_filler {
      type: "xavier"
    }
    bias_filler {
      type: "constant"
      value: 0
    }
  }
}
layer {
  name: "conv7_2_mbox_conf_perm"
  type: "Permute"
  bottom: "conv7_2_mbox_conf"
  top: "conv7_2_mbox_conf_perm"
  permute_param {
    order: 0
    order: 2
    order: 3
    order: 1
  }
}
layer {
  name: "conv7_2_mbox_conf_flat"
  type: "Flatten"
  bottom: "conv7_2_mbox_conf_perm"
  top: "conv7_2_mbox_conf_flat"
  flatten_param {
    axis: 1
  }
}
layer {
  name: "conv7_2_mbox_priorbox"
  type: "PriorBox"
  bottom: "conv7_2"
  bottom: "data"
  top: "conv7_2_mbox_priorbox"
  prior_box_param {
    min_size: 162
    max_size: 213
    aspect_ratio: 2
    aspect_ratio: 3
    flip: true
    clip: false
    variance: 0.1
    variance: 0.1
    variance: 0.2
    variance: 0.2
    step: 64
    offset: 0.5
  }
}
layer {
  name: "conv8_2_mbox_loc"
  type: "Convolution"
  bottom: "conv8_2"
  top: "conv8_2_mbox_loc"
  param {
    lr_mult: 1
    decay_mult: 1
  }
  param {
    lr_mult: 2
    decay_mult: 0
  }
  convolution_param {
    num_output: 16
    pad: 1
    kernel_size: 3
    stride: 1
    weight_filler {
      type: "xavier"
    }
    bias_filler {
      type: "constant"
      value: 0
    }
  }
}
layer {
  name: "conv8_2_mbox_loc_perm"
  type: "Permute"
  bottom: "conv8_2_mbox_loc"
  top: "conv8_2_mbox_loc_perm"
  permute_param {
    order: 0
    order: 2
    order: 3
    order: 1
  }
}
layer {
  name: "conv8_2_mbox_loc_flat"
  type: "Flatten"
  bottom: "conv8_2_mbox_loc_perm"
  top: "conv8_2_mbox_loc_flat"
  flatten_param {
    axis: 1
  }
}
layer {
  name: "conv8_2_mbox_conf"
  type: "Convolution"
  bottom: "conv8_2"
  top: "conv8_2_mbox_conf"
  param {
    lr_mult: 1
    decay_mult: 1
  }
  param {
    lr_mult: 2
    decay_mult: 0
  }
  convolution_param {
    num_output: 84
    pad: 1
    kernel_size: 3
    stride: 1
    weight_filler {
      type: "xavier"
    }
    bias_filler {
      type: "constant"
      value: 0
    }
  }
}
layer {
  name: "conv8_2_mbox_conf_perm"
  type: "Permute"
  bottom: "conv8_2_mbox_conf"
  top: "conv8_2_mbox_conf_perm"
  permute_param {
    order: 0
    order: 2
    order: 3
    order: 1
  }
}
layer {
  name: "conv8_2_mbox_conf_flat"
  type: "Flatten"
  bottom: "conv8_2_mbox_conf_perm"
  top: "conv8_2_mbox_conf_flat"
  flatten_param {
    axis: 1
  }
}
layer {
  name: "conv8_2_mbox_priorbox"
  type: "PriorBox"
  bottom: "conv8_2"
  bottom: "data"
  top: "conv8_2_mbox_priorbox"
  prior_box_param {
    min_size: 213
    max_size: 264
    aspect_ratio: 2
    flip: true
    clip: false
    variance: 0.1
    variance: 0.1
    variance: 0.2
    variance: 0.2
    step: 100
    offset: 0.5
  }
}
layer {
  name: "conv9_2_mbox_loc"
  type: "Convolution"
  bottom: "conv9_2"
  top: "conv9_2_mbox_loc"
  param {
    lr_mult: 1
    decay_mult: 1
  }
  param {
    lr_mult: 2
    decay_mult: 0
  }
  convolution_param {
    num_output: 16
    pad: 1
    kernel_size: 3
    stride: 1
    weight_filler {
      type: "xavier"
    }
    bias_filler {
      type: "constant"
      value: 0
    }
  }
}
layer {
  name: "conv9_2_mbox_loc_perm"
  type: "Permute"
  bottom: "conv9_2_mbox_loc"
  top: "conv9_2_mbox_loc_perm"
  permute_param {
    order: 0
    order: 2
    order: 3
    order: 1
  }
}
layer {
  name: "conv9_2_mbox_loc_flat"
  type: "Flatten"
  bottom: "conv9_2_mbox_loc_perm"
  top: "conv9_2_mbox_loc_flat"
  flatten_param {
    axis: 1
  }
}
layer {
  name: "conv9_2_mbox_conf"
  type: "Convolution"
  bottom: "conv9_2"
  top: "conv9_2_mbox_conf"
  param {
    lr_mult: 1
    decay_mult: 1
  }
  param {
    lr_mult: 2
    decay_mult: 0
  }
  convolution_param {
    num_output: 84
    pad: 1
    kernel_size: 3
    stride: 1
    weight_filler {
      type: "xavier"
    }
    bias_filler {
      type: "constant"
      value: 0
    }
  }
}
layer {
  name: "conv9_2_mbox_conf_perm"
  type: "Permute"
  bottom: "conv9_2_mbox_conf"
  top: "conv9_2_mbox_conf_perm"
  permute_param {
    order: 0
    order: 2
    order: 3
    order: 1
  }
}
layer {
  name: "conv9_2_mbox_conf_flat"
  type: "Flatten"
  bottom: "conv9_2_mbox_conf_perm"
  top: "conv9_2_mbox_conf_flat"
  flatten_param {
    axis: 1
  }
}
layer {
  name: "conv9_2_mbox_priorbox"
  type: "PriorBox"
  bottom: "conv9_2"
  bottom: "data"
  top: "conv9_2_mbox_priorbox"
  prior_box_param {
    min_size: 264
    max_size: 315
    aspect_ratio: 2
    flip: true
    clip: false
    variance: 0.1
    variance: 0.1
    variance: 0.2
    variance: 0.2
    step: 300
    offset: 0.5
  }
}
layer {
  name: "mbox_loc"
  type: "Concat"
  bottom: "conv4_3_norm_mbox_loc_flat"
  bottom: "fc7_mbox_loc_flat"
  bottom: "conv6_2_mbox_loc_flat"
  bottom: "conv7_2_mbox_loc_flat"
  bottom: "conv8_2_mbox_loc_flat"
  bottom: "conv9_2_mbox_loc_flat"
  top: "mbox_loc"
  concat_param {
    axis: 1
  }
}
layer {
  name: "mbox_conf"
  type: "Concat"
  bottom: "conv4_3_norm_mbox_conf_flat"
  bottom: "fc7_mbox_conf_flat"
  bottom: "conv6_2_mbox_conf_flat"
  bottom: "conv7_2_mbox_conf_flat"
  bottom: "conv8_2_mbox_conf_flat"
  bottom: "conv9_2_mbox_conf_flat"
  top: "mbox_conf"
  concat_param {
    axis: 1
  }
}
layer {
  name: "mbox_priorbox"
  type: "Concat"
  bottom: "conv4_3_norm_mbox_priorbox"
  bottom: "fc7_mbox_priorbox"
  bottom: "conv6_2_mbox_priorbox"
  bottom: "conv7_2_mbox_priorbox"
  bottom: "conv8_2_mbox_priorbox"
  bottom: "conv9_2_mbox_priorbox"
  top: "mbox_priorbox"
  concat_param {
    axis: 2
  }
}
layer {
  name: "mbox_conf_reshape"
  type: "Reshape"
  bottom: "mbox_conf"
  top: "mbox_conf_reshape"
  reshape_param {
    shape {
      dim: 0
      dim: -1
      dim: 21
    }
  }
}
layer {
  name: "mbox_conf_softmax"
  type: "Softmax"
  bottom: "mbox_conf_reshape"
  top: "mbox_conf_softmax"
  softmax_param {
    axis: 2
  }
}
layer {
  name: "mbox_conf_flatten"
  type: "Flatten"
  bottom: "mbox_conf_softmax"
  top: "mbox_conf_flatten"
  flatten_param {
    axis: 1
  }
}
layer {
  name: "detection_out"
  type: "DetectionOutput"
  bottom: "mbox_loc"
  bottom: "mbox_conf_flatten"
  bottom: "mbox_priorbox"
  top: "detection_out"
  include {
    phase: TEST
  }
  detection_output_param {
    num_classes: 21
    share_location: true
    background_label_id: 0
    nms_param {
      nms_threshold: 0.45
      top_k: 400
    }
    save_output_param {
      output_directory: "/app/caffe//data/VOCdevkit/results/VOC2007/SSD_300x300/Main"
      output_name_prefix: "comp4_det_test_"
      output_format: "VOC"
      label_map_file: "data/VOC0712/labelmap_voc.prototxt"
      name_size_file: "data/VOC0712/test_name_size.txt"
      num_test_image: 4952
    }
    code_type: CENTER_SIZE
    keep_top_k: 200
    confidence_threshold: 0.01
  }
}
layer {
  name: "detection_eval"
  type: "DetectionEvaluate"
  bottom: "detection_out"
  bottom: "label"
  top: "detection_eval"
  include {
    phase: TEST
  }
  detection_evaluate_param {
    num_classes: 21
    background_label_id: 0
    overlap_threshold: 0.5
    evaluate_difficult_gt: false
    name_size_file: "data/VOC0712/test_name_size.txt"
  }
}
I0824 08:55:36.090346 17213 layer_factory.hpp:77] Creating layer data
I0824 08:55:36.090426 17213 net.cpp:100] Creating Layer data
I0824 08:55:36.090435 17213 net.cpp:408] data -> data
I0824 08:55:36.090443 17213 net.cpp:408] data -> label
I0824 08:55:36.103101 17224 db_lmdb.cpp:35] Opened lmdb examples/VOC0712/VOC0712_test_lmdb
I0824 08:55:36.114924 17213 annotated_data_layer.cpp:62] output data size: 8,3,300,300
I0824 08:55:36.115103 17213 net.cpp:150] Setting up data
I0824 08:55:36.115109 17213 net.cpp:157] Top shape: 8 3 300 300 (2160000)
I0824 08:55:36.115114 17213 net.cpp:157] Top shape: 1 1 2 8 (16)
I0824 08:55:36.115116 17213 net.cpp:165] Memory required for data: 8640064
I0824 08:55:36.115123 17213 layer_factory.hpp:77] Creating layer data_data_0_split
I0824 08:55:36.115132 17213 net.cpp:100] Creating Layer data_data_0_split
I0824 08:55:36.115135 17213 net.cpp:434] data_data_0_split <- data
I0824 08:55:36.115139 17213 net.cpp:408] data_data_0_split -> data_data_0_split_0
I0824 08:55:36.115146 17213 net.cpp:408] data_data_0_split -> data_data_0_split_1
I0824 08:55:36.115151 17213 net.cpp:408] data_data_0_split -> data_data_0_split_2
I0824 08:55:36.115154 17213 net.cpp:408] data_data_0_split -> data_data_0_split_3
I0824 08:55:36.115157 17213 net.cpp:408] data_data_0_split -> data_data_0_split_4
I0824 08:55:36.115160 17213 net.cpp:408] data_data_0_split -> data_data_0_split_5
I0824 08:55:36.115162 17213 net.cpp:408] data_data_0_split -> data_data_0_split_6
I0824 08:55:36.115167 17213 net.cpp:150] Setting up data_data_0_split
I0824 08:55:36.115170 17213 net.cpp:157] Top shape: 8 3 300 300 (2160000)
I0824 08:55:36.115171 17213 net.cpp:157] Top shape: 8 3 300 300 (2160000)
I0824 08:55:36.115173 17213 net.cpp:157] Top shape: 8 3 300 300 (2160000)
I0824 08:55:36.115175 17213 net.cpp:157] Top shape: 8 3 300 300 (2160000)
I0824 08:55:36.115177 17213 net.cpp:157] Top shape: 8 3 300 300 (2160000)
I0824 08:55:36.115180 17213 net.cpp:157] Top shape: 8 3 300 300 (2160000)
I0824 08:55:36.115181 17213 net.cpp:157] Top shape: 8 3 300 300 (2160000)
I0824 08:55:36.115183 17213 net.cpp:165] Memory required for data: 69120064
I0824 08:55:36.115185 17213 layer_factory.hpp:77] Creating layer conv1_1
I0824 08:55:36.115192 17213 net.cpp:100] Creating Layer conv1_1
I0824 08:55:36.115195 17213 net.cpp:434] conv1_1 <- data_data_0_split_0
I0824 08:55:36.115197 17213 net.cpp:408] conv1_1 -> conv1_1
I0824 08:55:36.115368 17213 net.cpp:150] Setting up conv1_1
I0824 08:55:36.115373 17213 net.cpp:157] Top shape: 8 64 300 300 (46080000)
I0824 08:55:36.115411 17213 net.cpp:165] Memory required for data: 253440064
I0824 08:55:36.115417 17213 layer_factory.hpp:77] Creating layer relu1_1
I0824 08:55:36.115851 17213 net.cpp:100] Creating Layer relu1_1
I0824 08:55:36.115854 17213 net.cpp:434] relu1_1 <- conv1_1
I0824 08:55:36.115859 17213 net.cpp:395] relu1_1 -> conv1_1 (in-place)
I0824 08:55:36.115864 17213 net.cpp:150] Setting up relu1_1
I0824 08:55:36.115864 17213 net.cpp:157] Top shape: 8 64 300 300 (46080000)
I0824 08:55:36.115867 17213 net.cpp:165] Memory required for data: 437760064
I0824 08:55:36.115869 17213 layer_factory.hpp:77] Creating layer conv1_2
I0824 08:55:36.115875 17213 net.cpp:100] Creating Layer conv1_2
I0824 08:55:36.115877 17213 net.cpp:434] conv1_2 <- conv1_1
I0824 08:55:36.115880 17213 net.cpp:408] conv1_2 -> conv1_2
I0824 08:55:36.116099 17213 net.cpp:150] Setting up conv1_2
I0824 08:55:36.116103 17213 net.cpp:157] Top shape: 8 64 300 300 (46080000)
I0824 08:55:36.116106 17213 net.cpp:165] Memory required for data: 622080064
I0824 08:55:36.116109 17213 layer_factory.hpp:77] Creating layer relu1_2
I0824 08:55:36.116113 17213 net.cpp:100] Creating Layer relu1_2
I0824 08:55:36.116115 17213 net.cpp:434] relu1_2 <- conv1_2
I0824 08:55:36.116117 17213 net.cpp:395] relu1_2 -> conv1_2 (in-place)
I0824 08:55:36.116120 17213 net.cpp:150] Setting up relu1_2
I0824 08:55:36.116122 17213 net.cpp:157] Top shape: 8 64 300 300 (46080000)
I0824 08:55:36.116124 17213 net.cpp:165] Memory required for data: 806400064
I0824 08:55:36.116125 17213 layer_factory.hpp:77] Creating layer pool1
I0824 08:55:36.116128 17213 net.cpp:100] Creating Layer pool1
I0824 08:55:36.116130 17213 net.cpp:434] pool1 <- conv1_2
I0824 08:55:36.116132 17213 net.cpp:408] pool1 -> pool1
I0824 08:55:36.116137 17213 net.cpp:150] Setting up pool1
I0824 08:55:36.116137 17213 net.cpp:157] Top shape: 8 64 150 150 (11520000)
I0824 08:55:36.116139 17213 net.cpp:165] Memory required for data: 852480064
I0824 08:55:36.116142 17213 layer_factory.hpp:77] Creating layer conv2_1
I0824 08:55:36.116144 17213 net.cpp:100] Creating Layer conv2_1
I0824 08:55:36.116147 17213 net.cpp:434] conv2_1 <- pool1
I0824 08:55:36.116148 17213 net.cpp:408] conv2_1 -> conv2_1
I0824 08:55:36.116452 17213 net.cpp:150] Setting up conv2_1
I0824 08:55:36.116458 17213 net.cpp:157] Top shape: 8 128 150 150 (23040000)
I0824 08:55:36.116461 17213 net.cpp:165] Memory required for data: 944640064
I0824 08:55:36.116465 17213 layer_factory.hpp:77] Creating layer relu2_1
I0824 08:55:36.116468 17213 net.cpp:100] Creating Layer relu2_1
I0824 08:55:36.116472 17213 net.cpp:434] relu2_1 <- conv2_1
I0824 08:55:36.116473 17213 net.cpp:395] relu2_1 -> conv2_1 (in-place)
I0824 08:55:36.116477 17213 net.cpp:150] Setting up relu2_1
I0824 08:55:36.116478 17213 net.cpp:157] Top shape: 8 128 150 150 (23040000)
I0824 08:55:36.116480 17213 net.cpp:165] Memory required for data: 1036800064
I0824 08:55:36.116482 17213 layer_factory.hpp:77] Creating layer conv2_2
I0824 08:55:36.116485 17213 net.cpp:100] Creating Layer conv2_2
I0824 08:55:36.116487 17213 net.cpp:434] conv2_2 <- conv2_1
I0824 08:55:36.116490 17213 net.cpp:408] conv2_2 -> conv2_2
I0824 08:55:36.117190 17213 net.cpp:150] Setting up conv2_2
I0824 08:55:36.117195 17213 net.cpp:157] Top shape: 8 128 150 150 (23040000)
I0824 08:55:36.117198 17213 net.cpp:165] Memory required for data: 1128960064
I0824 08:55:36.117202 17213 layer_factory.hpp:77] Creating layer relu2_2
I0824 08:55:36.117204 17213 net.cpp:100] Creating Layer relu2_2
I0824 08:55:36.117206 17213 net.cpp:434] relu2_2 <- conv2_2
I0824 08:55:36.117208 17213 net.cpp:395] relu2_2 -> conv2_2 (in-place)
I0824 08:55:36.117211 17213 net.cpp:150] Setting up relu2_2
I0824 08:55:36.117213 17213 net.cpp:157] Top shape: 8 128 150 150 (23040000)
I0824 08:55:36.117214 17213 net.cpp:165] Memory required for data: 1221120064
I0824 08:55:36.117215 17213 layer_factory.hpp:77] Creating layer pool2
I0824 08:55:36.117218 17213 net.cpp:100] Creating Layer pool2
I0824 08:55:36.117220 17213 net.cpp:434] pool2 <- conv2_2
I0824 08:55:36.117237 17213 net.cpp:408] pool2 -> pool2
I0824 08:55:36.117241 17213 net.cpp:150] Setting up pool2
I0824 08:55:36.117242 17213 net.cpp:157] Top shape: 8 128 75 75 (5760000)
I0824 08:55:36.117244 17213 net.cpp:165] Memory required for data: 1244160064
I0824 08:55:36.117246 17213 layer_factory.hpp:77] Creating layer conv3_1
I0824 08:55:36.117249 17213 net.cpp:100] Creating Layer conv3_1
I0824 08:55:36.117251 17213 net.cpp:434] conv3_1 <- pool2
I0824 08:55:36.117254 17213 net.cpp:408] conv3_1 -> conv3_1
I0824 08:55:36.118517 17213 net.cpp:150] Setting up conv3_1
I0824 08:55:36.118526 17213 net.cpp:157] Top shape: 8 256 75 75 (11520000)
I0824 08:55:36.118530 17213 net.cpp:165] Memory required for data: 1290240064
I0824 08:55:36.118535 17213 layer_factory.hpp:77] Creating layer relu3_1
I0824 08:55:36.118538 17213 net.cpp:100] Creating Layer relu3_1
I0824 08:55:36.118541 17213 net.cpp:434] relu3_1 <- conv3_1
I0824 08:55:36.118543 17213 net.cpp:395] relu3_1 -> conv3_1 (in-place)
I0824 08:55:36.118546 17213 net.cpp:150] Setting up relu3_1
I0824 08:55:36.118548 17213 net.cpp:157] Top shape: 8 256 75 75 (11520000)
I0824 08:55:36.118551 17213 net.cpp:165] Memory required for data: 1336320064
I0824 08:55:36.118551 17213 layer_factory.hpp:77] Creating layer conv3_2
I0824 08:55:36.118556 17213 net.cpp:100] Creating Layer conv3_2
I0824 08:55:36.118558 17213 net.cpp:434] conv3_2 <- conv3_1
I0824 08:55:36.118561 17213 net.cpp:408] conv3_2 -> conv3_2
I0824 08:55:36.120770 17213 net.cpp:150] Setting up conv3_2
I0824 08:55:36.120783 17213 net.cpp:157] Top shape: 8 256 75 75 (11520000)
I0824 08:55:36.120787 17213 net.cpp:165] Memory required for data: 1382400064
I0824 08:55:36.120793 17213 layer_factory.hpp:77] Creating layer relu3_2
I0824 08:55:36.120798 17213 net.cpp:100] Creating Layer relu3_2
I0824 08:55:36.120800 17213 net.cpp:434] relu3_2 <- conv3_2
I0824 08:55:36.120803 17213 net.cpp:395] relu3_2 -> conv3_2 (in-place)
I0824 08:55:36.120808 17213 net.cpp:150] Setting up relu3_2
I0824 08:55:36.120810 17213 net.cpp:157] Top shape: 8 256 75 75 (11520000)
I0824 08:55:36.120811 17213 net.cpp:165] Memory required for data: 1428480064
I0824 08:55:36.120813 17213 layer_factory.hpp:77] Creating layer conv3_3
I0824 08:55:36.120821 17213 net.cpp:100] Creating Layer conv3_3
I0824 08:55:36.120823 17213 net.cpp:434] conv3_3 <- conv3_2
I0824 08:55:36.120826 17213 net.cpp:408] conv3_3 -> conv3_3
I0824 08:55:36.123539 17213 net.cpp:150] Setting up conv3_3
I0824 08:55:36.123549 17213 net.cpp:157] Top shape: 8 256 75 75 (11520000)
I0824 08:55:36.123553 17213 net.cpp:165] Memory required for data: 1474560064
I0824 08:55:36.123559 17213 layer_factory.hpp:77] Creating layer relu3_3
I0824 08:55:36.123564 17213 net.cpp:100] Creating Layer relu3_3
I0824 08:55:36.123567 17213 net.cpp:434] relu3_3 <- conv3_3
I0824 08:55:36.123570 17213 net.cpp:395] relu3_3 -> conv3_3 (in-place)
I0824 08:55:36.123574 17213 net.cpp:150] Setting up relu3_3
I0824 08:55:36.123576 17213 net.cpp:157] Top shape: 8 256 75 75 (11520000)
I0824 08:55:36.123579 17213 net.cpp:165] Memory required for data: 1520640064
I0824 08:55:36.123580 17213 layer_factory.hpp:77] Creating layer pool3
I0824 08:55:36.123584 17213 net.cpp:100] Creating Layer pool3
I0824 08:55:36.123585 17213 net.cpp:434] pool3 <- conv3_3
I0824 08:55:36.123589 17213 net.cpp:408] pool3 -> pool3
I0824 08:55:36.123592 17213 net.cpp:150] Setting up pool3
I0824 08:55:36.123593 17213 net.cpp:157] Top shape: 8 256 38 38 (2957312)
I0824 08:55:36.123595 17213 net.cpp:165] Memory required for data: 1532469312
I0824 08:55:36.123597 17213 layer_factory.hpp:77] Creating layer conv4_1
I0824 08:55:36.123605 17213 net.cpp:100] Creating Layer conv4_1
I0824 08:55:36.123606 17213 net.cpp:434] conv4_1 <- pool3
I0824 08:55:36.123610 17213 net.cpp:408] conv4_1 -> conv4_1
I0824 08:55:36.128944 17213 net.cpp:150] Setting up conv4_1
I0824 08:55:36.128957 17213 net.cpp:157] Top shape: 8 512 38 38 (5914624)
I0824 08:55:36.128962 17213 net.cpp:165] Memory required for data: 1556127808
I0824 08:55:36.128968 17213 layer_factory.hpp:77] Creating layer relu4_1
I0824 08:55:36.128998 17213 net.cpp:100] Creating Layer relu4_1
I0824 08:55:36.129002 17213 net.cpp:434] relu4_1 <- conv4_1
I0824 08:55:36.129005 17213 net.cpp:395] relu4_1 -> conv4_1 (in-place)
I0824 08:55:36.129010 17213 net.cpp:150] Setting up relu4_1
I0824 08:55:36.129012 17213 net.cpp:157] Top shape: 8 512 38 38 (5914624)
I0824 08:55:36.129014 17213 net.cpp:165] Memory required for data: 1579786304
I0824 08:55:36.129016 17213 layer_factory.hpp:77] Creating layer conv4_2
I0824 08:55:36.129022 17213 net.cpp:100] Creating Layer conv4_2
I0824 08:55:36.129024 17213 net.cpp:434] conv4_2 <- conv4_1
I0824 08:55:36.129026 17213 net.cpp:408] conv4_2 -> conv4_2
I0824 08:55:36.138046 17213 net.cpp:150] Setting up conv4_2
I0824 08:55:36.138059 17213 net.cpp:157] Top shape: 8 512 38 38 (5914624)
I0824 08:55:36.138065 17213 net.cpp:165] Memory required for data: 1603444800
I0824 08:55:36.138074 17213 layer_factory.hpp:77] Creating layer relu4_2
I0824 08:55:36.138080 17213 net.cpp:100] Creating Layer relu4_2
I0824 08:55:36.138084 17213 net.cpp:434] relu4_2 <- conv4_2
I0824 08:55:36.138087 17213 net.cpp:395] relu4_2 -> conv4_2 (in-place)
I0824 08:55:36.138094 17213 net.cpp:150] Setting up relu4_2
I0824 08:55:36.138096 17213 net.cpp:157] Top shape: 8 512 38 38 (5914624)
I0824 08:55:36.138098 17213 net.cpp:165] Memory required for data: 1627103296
I0824 08:55:36.138100 17213 layer_factory.hpp:77] Creating layer conv4_3
I0824 08:55:36.138108 17213 net.cpp:100] Creating Layer conv4_3
I0824 08:55:36.138108 17213 net.cpp:434] conv4_3 <- conv4_2
I0824 08:55:36.138111 17213 net.cpp:408] conv4_3 -> conv4_3
I0824 08:55:36.146941 17213 net.cpp:150] Setting up conv4_3
I0824 08:55:36.146960 17213 net.cpp:157] Top shape: 8 512 38 38 (5914624)
I0824 08:55:36.146965 17213 net.cpp:165] Memory required for data: 1650761792
I0824 08:55:36.146970 17213 layer_factory.hpp:77] Creating layer relu4_3
I0824 08:55:36.146978 17213 net.cpp:100] Creating Layer relu4_3
I0824 08:55:36.146981 17213 net.cpp:434] relu4_3 <- conv4_3
I0824 08:55:36.146986 17213 net.cpp:395] relu4_3 -> conv4_3 (in-place)
I0824 08:55:36.146991 17213 net.cpp:150] Setting up relu4_3
I0824 08:55:36.146992 17213 net.cpp:157] Top shape: 8 512 38 38 (5914624)
I0824 08:55:36.146994 17213 net.cpp:165] Memory required for data: 1674420288
I0824 08:55:36.146996 17213 layer_factory.hpp:77] Creating layer conv4_3_relu4_3_0_split
I0824 08:55:36.147006 17213 net.cpp:100] Creating Layer conv4_3_relu4_3_0_split
I0824 08:55:36.147007 17213 net.cpp:434] conv4_3_relu4_3_0_split <- conv4_3
I0824 08:55:36.147011 17213 net.cpp:408] conv4_3_relu4_3_0_split -> conv4_3_relu4_3_0_split_0
I0824 08:55:36.147013 17213 net.cpp:408] conv4_3_relu4_3_0_split -> conv4_3_relu4_3_0_split_1
I0824 08:55:36.147017 17213 net.cpp:150] Setting up conv4_3_relu4_3_0_split
I0824 08:55:36.147018 17213 net.cpp:157] Top shape: 8 512 38 38 (5914624)
I0824 08:55:36.147027 17213 net.cpp:157] Top shape: 8 512 38 38 (5914624)
I0824 08:55:36.147032 17213 net.cpp:165] Memory required for data: 1721737280
I0824 08:55:36.147033 17213 layer_factory.hpp:77] Creating layer pool4
I0824 08:55:36.147037 17213 net.cpp:100] Creating Layer pool4
I0824 08:55:36.147038 17213 net.cpp:434] pool4 <- conv4_3_relu4_3_0_split_0
I0824 08:55:36.147042 17213 net.cpp:408] pool4 -> pool4
I0824 08:55:36.147050 17213 net.cpp:150] Setting up pool4
I0824 08:55:36.147053 17213 net.cpp:157] Top shape: 8 512 19 19 (1478656)
I0824 08:55:36.147055 17213 net.cpp:165] Memory required for data: 1727651904
I0824 08:55:36.147058 17213 layer_factory.hpp:77] Creating layer conv5_1
I0824 08:55:36.147063 17213 net.cpp:100] Creating Layer conv5_1
I0824 08:55:36.147066 17213 net.cpp:434] conv5_1 <- pool4
I0824 08:55:36.147068 17213 net.cpp:408] conv5_1 -> conv5_1
I0824 08:55:36.156229 17213 net.cpp:150] Setting up conv5_1
I0824 08:55:36.156353 17213 net.cpp:157] Top shape: 8 512 19 19 (1478656)
I0824 08:55:36.156360 17213 net.cpp:165] Memory required for data: 1733566528
I0824 08:55:36.156368 17213 layer_factory.hpp:77] Creating layer relu5_1
I0824 08:55:36.156374 17213 net.cpp:100] Creating Layer relu5_1
I0824 08:55:36.156405 17213 net.cpp:434] relu5_1 <- conv5_1
I0824 08:55:36.156410 17213 net.cpp:395] relu5_1 -> conv5_1 (in-place)
I0824 08:55:36.156417 17213 net.cpp:150] Setting up relu5_1
I0824 08:55:36.156419 17213 net.cpp:157] Top shape: 8 512 19 19 (1478656)
I0824 08:55:36.156421 17213 net.cpp:165] Memory required for data: 1739481152
I0824 08:55:36.156422 17213 layer_factory.hpp:77] Creating layer conv5_2
I0824 08:55:36.156428 17213 net.cpp:100] Creating Layer conv5_2
I0824 08:55:36.156430 17213 net.cpp:434] conv5_2 <- conv5_1
I0824 08:55:36.156432 17213 net.cpp:408] conv5_2 -> conv5_2
I0824 08:55:36.165707 17213 net.cpp:150] Setting up conv5_2
I0824 08:55:36.165721 17213 net.cpp:157] Top shape: 8 512 19 19 (1478656)
I0824 08:55:36.165725 17213 net.cpp:165] Memory required for data: 1745395776
I0824 08:55:36.165735 17213 layer_factory.hpp:77] Creating layer relu5_2
I0824 08:55:36.165740 17213 net.cpp:100] Creating Layer relu5_2
I0824 08:55:36.165743 17213 net.cpp:434] relu5_2 <- conv5_2
I0824 08:55:36.165747 17213 net.cpp:395] relu5_2 -> conv5_2 (in-place)
I0824 08:55:36.165752 17213 net.cpp:150] Setting up relu5_2
I0824 08:55:36.165755 17213 net.cpp:157] Top shape: 8 512 19 19 (1478656)
I0824 08:55:36.165756 17213 net.cpp:165] Memory required for data: 1751310400
I0824 08:55:36.165758 17213 layer_factory.hpp:77] Creating layer conv5_3
I0824 08:55:36.165764 17213 net.cpp:100] Creating Layer conv5_3
I0824 08:55:36.165766 17213 net.cpp:434] conv5_3 <- conv5_2
I0824 08:55:36.165768 17213 net.cpp:408] conv5_3 -> conv5_3
I0824 08:55:36.175210 17213 net.cpp:150] Setting up conv5_3
I0824 08:55:36.175348 17213 net.cpp:157] Top shape: 8 512 19 19 (1478656)
I0824 08:55:36.175356 17213 net.cpp:165] Memory required for data: 1757225024
I0824 08:55:36.175364 17213 layer_factory.hpp:77] Creating layer relu5_3
I0824 08:55:36.175379 17213 net.cpp:100] Creating Layer relu5_3
I0824 08:55:36.175382 17213 net.cpp:434] relu5_3 <- conv5_3
I0824 08:55:36.175386 17213 net.cpp:395] relu5_3 -> conv5_3 (in-place)
I0824 08:55:36.175393 17213 net.cpp:150] Setting up relu5_3
I0824 08:55:36.175395 17213 net.cpp:157] Top shape: 8 512 19 19 (1478656)
I0824 08:55:36.175397 17213 net.cpp:165] Memory required for data: 1763139648
I0824 08:55:36.175400 17213 layer_factory.hpp:77] Creating layer pool5
I0824 08:55:36.175406 17213 net.cpp:100] Creating Layer pool5
I0824 08:55:36.175408 17213 net.cpp:434] pool5 <- conv5_3
I0824 08:55:36.175411 17213 net.cpp:408] pool5 -> pool5
I0824 08:55:36.175418 17213 net.cpp:150] Setting up pool5
I0824 08:55:36.175422 17213 net.cpp:157] Top shape: 8 512 19 19 (1478656)
I0824 08:55:36.175424 17213 net.cpp:165] Memory required for data: 1769054272
I0824 08:55:36.175426 17213 layer_factory.hpp:77] Creating layer fc6
I0824 08:55:36.175436 17213 net.cpp:100] Creating Layer fc6
I0824 08:55:36.175441 17213 net.cpp:434] fc6 <- pool5
I0824 08:55:36.175446 17213 net.cpp:408] fc6 -> fc6
I0824 08:55:36.194496 17213 net.cpp:150] Setting up fc6
I0824 08:55:36.194520 17213 net.cpp:157] Top shape: 8 1024 19 19 (2957312)
I0824 08:55:36.194525 17213 net.cpp:165] Memory required for data: 1780883520
I0824 08:55:36.194531 17213 layer_factory.hpp:77] Creating layer relu6
I0824 08:55:36.194537 17213 net.cpp:100] Creating Layer relu6
I0824 08:55:36.194541 17213 net.cpp:434] relu6 <- fc6
I0824 08:55:36.194545 17213 net.cpp:395] relu6 -> fc6 (in-place)
I0824 08:55:36.194550 17213 net.cpp:150] Setting up relu6
I0824 08:55:36.194552 17213 net.cpp:157] Top shape: 8 1024 19 19 (2957312)
I0824 08:55:36.194555 17213 net.cpp:165] Memory required for data: 1792712768
I0824 08:55:36.194556 17213 layer_factory.hpp:77] Creating layer fc7
I0824 08:55:36.194562 17213 net.cpp:100] Creating Layer fc7
I0824 08:55:36.194564 17213 net.cpp:434] fc7 <- fc6
I0824 08:55:36.194567 17213 net.cpp:408] fc7 -> fc7
I0824 08:55:36.199061 17213 net.cpp:150] Setting up fc7
I0824 08:55:36.199107 17213 net.cpp:157] Top shape: 8 1024 19 19 (2957312)
I0824 08:55:36.199112 17213 net.cpp:165] Memory required for data: 1804542016
I0824 08:55:36.199146 17213 layer_factory.hpp:77] Creating layer relu7
I0824 08:55:36.199151 17213 net.cpp:100] Creating Layer relu7
I0824 08:55:36.199154 17213 net.cpp:434] relu7 <- fc7
I0824 08:55:36.199159 17213 net.cpp:395] relu7 -> fc7 (in-place)
I0824 08:55:36.199164 17213 net.cpp:150] Setting up relu7
I0824 08:55:36.199167 17213 net.cpp:157] Top shape: 8 1024 19 19 (2957312)
I0824 08:55:36.199168 17213 net.cpp:165] Memory required for data: 1816371264
I0824 08:55:36.199170 17213 layer_factory.hpp:77] Creating layer fc7_relu7_0_split
I0824 08:55:36.199173 17213 net.cpp:100] Creating Layer fc7_relu7_0_split
I0824 08:55:36.199175 17213 net.cpp:434] fc7_relu7_0_split <- fc7
I0824 08:55:36.199179 17213 net.cpp:408] fc7_relu7_0_split -> fc7_relu7_0_split_0
I0824 08:55:36.199183 17213 net.cpp:408] fc7_relu7_0_split -> fc7_relu7_0_split_1
I0824 08:55:36.199194 17213 net.cpp:408] fc7_relu7_0_split -> fc7_relu7_0_split_2
I0824 08:55:36.199200 17213 net.cpp:408] fc7_relu7_0_split -> fc7_relu7_0_split_3
I0824 08:55:36.199206 17213 net.cpp:150] Setting up fc7_relu7_0_split
I0824 08:55:36.199208 17213 net.cpp:157] Top shape: 8 1024 19 19 (2957312)
I0824 08:55:36.199210 17213 net.cpp:157] Top shape: 8 1024 19 19 (2957312)
I0824 08:55:36.199213 17213 net.cpp:157] Top shape: 8 1024 19 19 (2957312)
I0824 08:55:36.199214 17213 net.cpp:157] Top shape: 8 1024 19 19 (2957312)
I0824 08:55:36.199216 17213 net.cpp:165] Memory required for data: 1863688256
I0824 08:55:36.199218 17213 layer_factory.hpp:77] Creating layer conv6_1
I0824 08:55:36.199225 17213 net.cpp:100] Creating Layer conv6_1
I0824 08:55:36.199227 17213 net.cpp:434] conv6_1 <- fc7_relu7_0_split_0
I0824 08:55:36.199230 17213 net.cpp:408] conv6_1 -> conv6_1
I0824 08:55:36.200291 17213 net.cpp:150] Setting up conv6_1
I0824 08:55:36.200299 17213 net.cpp:157] Top shape: 8 256 19 19 (739328)
I0824 08:55:36.200301 17213 net.cpp:165] Memory required for data: 1866645568
I0824 08:55:36.200305 17213 layer_factory.hpp:77] Creating layer conv6_1_relu
I0824 08:55:36.200309 17213 net.cpp:100] Creating Layer conv6_1_relu
I0824 08:55:36.200311 17213 net.cpp:434] conv6_1_relu <- conv6_1
I0824 08:55:36.200313 17213 net.cpp:395] conv6_1_relu -> conv6_1 (in-place)
I0824 08:55:36.200317 17213 net.cpp:150] Setting up conv6_1_relu
I0824 08:55:36.200320 17213 net.cpp:157] Top shape: 8 256 19 19 (739328)
I0824 08:55:36.200321 17213 net.cpp:165] Memory required for data: 1869602880
I0824 08:55:36.200322 17213 layer_factory.hpp:77] Creating layer conv6_2
I0824 08:55:36.200328 17213 net.cpp:100] Creating Layer conv6_2
I0824 08:55:36.200330 17213 net.cpp:434] conv6_2 <- conv6_1
I0824 08:55:36.200333 17213 net.cpp:408] conv6_2 -> conv6_2
I0824 08:55:36.204694 17213 net.cpp:150] Setting up conv6_2
I0824 08:55:36.204708 17213 net.cpp:157] Top shape: 8 512 10 10 (409600)
I0824 08:55:36.204712 17213 net.cpp:165] Memory required for data: 1871241280
I0824 08:55:36.204722 17213 layer_factory.hpp:77] Creating layer conv6_2_relu
I0824 08:55:36.204727 17213 net.cpp:100] Creating Layer conv6_2_relu
I0824 08:55:36.204730 17213 net.cpp:434] conv6_2_relu <- conv6_2
I0824 08:55:36.204732 17213 net.cpp:395] conv6_2_relu -> conv6_2 (in-place)
I0824 08:55:36.204737 17213 net.cpp:150] Setting up conv6_2_relu
I0824 08:55:36.204738 17213 net.cpp:157] Top shape: 8 512 10 10 (409600)
I0824 08:55:36.204741 17213 net.cpp:165] Memory required for data: 1872879680
I0824 08:55:36.204742 17213 layer_factory.hpp:77] Creating layer conv6_2_conv6_2_relu_0_split
I0824 08:55:36.204752 17213 net.cpp:100] Creating Layer conv6_2_conv6_2_relu_0_split
I0824 08:55:36.204754 17213 net.cpp:434] conv6_2_conv6_2_relu_0_split <- conv6_2
I0824 08:55:36.204757 17213 net.cpp:408] conv6_2_conv6_2_relu_0_split -> conv6_2_conv6_2_relu_0_split_0
I0824 08:55:36.204761 17213 net.cpp:408] conv6_2_conv6_2_relu_0_split -> conv6_2_conv6_2_relu_0_split_1
I0824 08:55:36.204763 17213 net.cpp:408] conv6_2_conv6_2_relu_0_split -> conv6_2_conv6_2_relu_0_split_2
I0824 08:55:36.204766 17213 net.cpp:408] conv6_2_conv6_2_relu_0_split -> conv6_2_conv6_2_relu_0_split_3
I0824 08:55:36.204788 17213 net.cpp:150] Setting up conv6_2_conv6_2_relu_0_split
I0824 08:55:36.204790 17213 net.cpp:157] Top shape: 8 512 10 10 (409600)
I0824 08:55:36.204792 17213 net.cpp:157] Top shape: 8 512 10 10 (409600)
I0824 08:55:36.204794 17213 net.cpp:157] Top shape: 8 512 10 10 (409600)
I0824 08:55:36.204797 17213 net.cpp:157] Top shape: 8 512 10 10 (409600)
I0824 08:55:36.204798 17213 net.cpp:165] Memory required for data: 1879433280
I0824 08:55:36.204800 17213 layer_factory.hpp:77] Creating layer conv7_1
I0824 08:55:36.204805 17213 net.cpp:100] Creating Layer conv7_1
I0824 08:55:36.204807 17213 net.cpp:434] conv7_1 <- conv6_2_conv6_2_relu_0_split_0
I0824 08:55:36.204813 17213 net.cpp:408] conv7_1 -> conv7_1
I0824 08:55:36.205034 17213 net.cpp:150] Setting up conv7_1
I0824 08:55:36.205035 17213 net.cpp:157] Top shape: 8 128 10 10 (102400)
I0824 08:55:36.205039 17213 net.cpp:165] Memory required for data: 1879842880
I0824 08:55:36.205040 17213 layer_factory.hpp:77] Creating layer conv7_1_relu
I0824 08:55:36.205044 17213 net.cpp:100] Creating Layer conv7_1_relu
I0824 08:55:36.205046 17213 net.cpp:434] conv7_1_relu <- conv7_1
I0824 08:55:36.205049 17213 net.cpp:395] conv7_1_relu -> conv7_1 (in-place)
I0824 08:55:36.205050 17213 net.cpp:150] Setting up conv7_1_relu
I0824 08:55:36.205052 17213 net.cpp:157] Top shape: 8 128 10 10 (102400)
I0824 08:55:36.205054 17213 net.cpp:165] Memory required for data: 1880252480
I0824 08:55:36.205055 17213 layer_factory.hpp:77] Creating layer conv7_2
I0824 08:55:36.205062 17213 net.cpp:100] Creating Layer conv7_2
I0824 08:55:36.205063 17213 net.cpp:434] conv7_2 <- conv7_1
I0824 08:55:36.205066 17213 net.cpp:408] conv7_2 -> conv7_2
I0824 08:55:36.206177 17213 net.cpp:150] Setting up conv7_2
I0824 08:55:36.206185 17213 net.cpp:157] Top shape: 8 256 5 5 (51200)
I0824 08:55:36.206188 17213 net.cpp:165] Memory required for data: 1880457280
I0824 08:55:36.206193 17213 layer_factory.hpp:77] Creating layer conv7_2_relu
I0824 08:55:36.206197 17213 net.cpp:100] Creating Layer conv7_2_relu
I0824 08:55:36.206199 17213 net.cpp:434] conv7_2_relu <- conv7_2
I0824 08:55:36.206202 17213 net.cpp:395] conv7_2_relu -> conv7_2 (in-place)
I0824 08:55:36.206205 17213 net.cpp:150] Setting up conv7_2_relu
I0824 08:55:36.206207 17213 net.cpp:157] Top shape: 8 256 5 5 (51200)
I0824 08:55:36.206209 17213 net.cpp:165] Memory required for data: 1880662080
I0824 08:55:36.206212 17213 layer_factory.hpp:77] Creating layer conv7_2_conv7_2_relu_0_split
I0824 08:55:36.206214 17213 net.cpp:100] Creating Layer conv7_2_conv7_2_relu_0_split
I0824 08:55:36.206215 17213 net.cpp:434] conv7_2_conv7_2_relu_0_split <- conv7_2
I0824 08:55:36.206218 17213 net.cpp:408] conv7_2_conv7_2_relu_0_split -> conv7_2_conv7_2_relu_0_split_0
I0824 08:55:36.206221 17213 net.cpp:408] conv7_2_conv7_2_relu_0_split -> conv7_2_conv7_2_relu_0_split_1
I0824 08:55:36.206225 17213 net.cpp:408] conv7_2_conv7_2_relu_0_split -> conv7_2_conv7_2_relu_0_split_2
I0824 08:55:36.206228 17213 net.cpp:408] conv7_2_conv7_2_relu_0_split -> conv7_2_conv7_2_relu_0_split_3
I0824 08:55:36.206231 17213 net.cpp:150] Setting up conv7_2_conv7_2_relu_0_split
I0824 08:55:36.206233 17213 net.cpp:157] Top shape: 8 256 5 5 (51200)
I0824 08:55:36.206235 17213 net.cpp:157] Top shape: 8 256 5 5 (51200)
I0824 08:55:36.206238 17213 net.cpp:157] Top shape: 8 256 5 5 (51200)
I0824 08:55:36.206239 17213 net.cpp:157] Top shape: 8 256 5 5 (51200)
I0824 08:55:36.206241 17213 net.cpp:165] Memory required for data: 1881481280
I0824 08:55:36.206243 17213 layer_factory.hpp:77] Creating layer conv8_1
I0824 08:55:36.206247 17213 net.cpp:100] Creating Layer conv8_1
I0824 08:55:36.206249 17213 net.cpp:434] conv8_1 <- conv7_2_conv7_2_relu_0_split_0
I0824 08:55:36.206252 17213 net.cpp:408] conv8_1 -> conv8_1
I0824 08:55:36.206373 17213 net.cpp:150] Setting up conv8_1
I0824 08:55:36.206377 17213 net.cpp:157] Top shape: 8 128 5 5 (25600)
I0824 08:55:36.206379 17213 net.cpp:165] Memory required for data: 1881583680
I0824 08:55:36.206382 17213 layer_factory.hpp:77] Creating layer conv8_1_relu
I0824 08:55:36.206410 17213 net.cpp:100] Creating Layer conv8_1_relu
I0824 08:55:36.206413 17213 net.cpp:434] conv8_1_relu <- conv8_1
I0824 08:55:36.206414 17213 net.cpp:395] conv8_1_relu -> conv8_1 (in-place)
I0824 08:55:36.206418 17213 net.cpp:150] Setting up conv8_1_relu
I0824 08:55:36.206419 17213 net.cpp:157] Top shape: 8 128 5 5 (25600)
I0824 08:55:36.206421 17213 net.cpp:165] Memory required for data: 1881686080
I0824 08:55:36.206423 17213 layer_factory.hpp:77] Creating layer conv8_2
I0824 08:55:36.206429 17213 net.cpp:100] Creating Layer conv8_2
I0824 08:55:36.206430 17213 net.cpp:434] conv8_2 <- conv8_1
I0824 08:55:36.206432 17213 net.cpp:408] conv8_2 -> conv8_2
I0824 08:55:36.207787 17213 net.cpp:150] Setting up conv8_2
I0824 08:55:36.207795 17213 net.cpp:157] Top shape: 8 256 3 3 (18432)
I0824 08:55:36.207799 17213 net.cpp:165] Memory required for data: 1881759808
I0824 08:55:36.207804 17213 layer_factory.hpp:77] Creating layer conv8_2_relu
I0824 08:55:36.207808 17213 net.cpp:100] Creating Layer conv8_2_relu
I0824 08:55:36.207810 17213 net.cpp:434] conv8_2_relu <- conv8_2
I0824 08:55:36.207814 17213 net.cpp:395] conv8_2_relu -> conv8_2 (in-place)
I0824 08:55:36.207818 17213 net.cpp:150] Setting up conv8_2_relu
I0824 08:55:36.207819 17213 net.cpp:157] Top shape: 8 256 3 3 (18432)
I0824 08:55:36.207823 17213 net.cpp:165] Memory required for data: 1881833536
I0824 08:55:36.207823 17213 layer_factory.hpp:77] Creating layer conv8_2_conv8_2_relu_0_split
I0824 08:55:36.207828 17213 net.cpp:100] Creating Layer conv8_2_conv8_2_relu_0_split
I0824 08:55:36.207830 17213 net.cpp:434] conv8_2_conv8_2_relu_0_split <- conv8_2
I0824 08:55:36.207834 17213 net.cpp:408] conv8_2_conv8_2_relu_0_split -> conv8_2_conv8_2_relu_0_split_0
I0824 08:55:36.207837 17213 net.cpp:408] conv8_2_conv8_2_relu_0_split -> conv8_2_conv8_2_relu_0_split_1
I0824 08:55:36.207840 17213 net.cpp:408] conv8_2_conv8_2_relu_0_split -> conv8_2_conv8_2_relu_0_split_2
I0824 08:55:36.207844 17213 net.cpp:408] conv8_2_conv8_2_relu_0_split -> conv8_2_conv8_2_relu_0_split_3
I0824 08:55:36.207847 17213 net.cpp:150] Setting up conv8_2_conv8_2_relu_0_split
I0824 08:55:36.207849 17213 net.cpp:157] Top shape: 8 256 3 3 (18432)
I0824 08:55:36.207851 17213 net.cpp:157] Top shape: 8 256 3 3 (18432)
I0824 08:55:36.207852 17213 net.cpp:157] Top shape: 8 256 3 3 (18432)
I0824 08:55:36.207854 17213 net.cpp:157] Top shape: 8 256 3 3 (18432)
I0824 08:55:36.207856 17213 net.cpp:165] Memory required for data: 1882128448
I0824 08:55:36.207859 17213 layer_factory.hpp:77] Creating layer conv9_1
I0824 08:55:36.207863 17213 net.cpp:100] Creating Layer conv9_1
I0824 08:55:36.207866 17213 net.cpp:434] conv9_1 <- conv8_2_conv8_2_relu_0_split_0
I0824 08:55:36.207870 17213 net.cpp:408] conv9_1 -> conv9_1
I0824 08:55:36.207998 17213 net.cpp:150] Setting up conv9_1
I0824 08:55:36.208003 17213 net.cpp:157] Top shape: 8 128 3 3 (9216)
I0824 08:55:36.208005 17213 net.cpp:165] Memory required for data: 1882165312
I0824 08:55:36.208009 17213 layer_factory.hpp:77] Creating layer conv9_1_relu
I0824 08:55:36.208011 17213 net.cpp:100] Creating Layer conv9_1_relu
I0824 08:55:36.208014 17213 net.cpp:434] conv9_1_relu <- conv9_1
I0824 08:55:36.208016 17213 net.cpp:395] conv9_1_relu -> conv9_1 (in-place)
I0824 08:55:36.208019 17213 net.cpp:150] Setting up conv9_1_relu
I0824 08:55:36.208021 17213 net.cpp:157] Top shape: 8 128 3 3 (9216)
I0824 08:55:36.208024 17213 net.cpp:165] Memory required for data: 1882202176
I0824 08:55:36.208024 17213 layer_factory.hpp:77] Creating layer conv9_2
I0824 08:55:36.208027 17213 net.cpp:100] Creating Layer conv9_2
I0824 08:55:36.208029 17213 net.cpp:434] conv9_2 <- conv9_1
I0824 08:55:36.208032 17213 net.cpp:408] conv9_2 -> conv9_2
I0824 08:55:36.209128 17213 net.cpp:150] Setting up conv9_2
I0824 08:55:36.209136 17213 net.cpp:157] Top shape: 8 256 1 1 (2048)
I0824 08:55:36.209138 17213 net.cpp:165] Memory required for data: 1882210368
I0824 08:55:36.209142 17213 layer_factory.hpp:77] Creating layer conv9_2_relu
I0824 08:55:36.209146 17213 net.cpp:100] Creating Layer conv9_2_relu
I0824 08:55:36.209168 17213 net.cpp:434] conv9_2_relu <- conv9_2
I0824 08:55:36.209172 17213 net.cpp:395] conv9_2_relu -> conv9_2 (in-place)
I0824 08:55:36.209175 17213 net.cpp:150] Setting up conv9_2_relu
I0824 08:55:36.209177 17213 net.cpp:157] Top shape: 8 256 1 1 (2048)
I0824 08:55:36.209178 17213 net.cpp:165] Memory required for data: 1882218560
I0824 08:55:36.209182 17213 layer_factory.hpp:77] Creating layer conv9_2_conv9_2_relu_0_split
I0824 08:55:36.209185 17213 net.cpp:100] Creating Layer conv9_2_conv9_2_relu_0_split
I0824 08:55:36.209187 17213 net.cpp:434] conv9_2_conv9_2_relu_0_split <- conv9_2
I0824 08:55:36.209189 17213 net.cpp:408] conv9_2_conv9_2_relu_0_split -> conv9_2_conv9_2_relu_0_split_0
I0824 08:55:36.209193 17213 net.cpp:408] conv9_2_conv9_2_relu_0_split -> conv9_2_conv9_2_relu_0_split_1
I0824 08:55:36.209196 17213 net.cpp:408] conv9_2_conv9_2_relu_0_split -> conv9_2_conv9_2_relu_0_split_2
I0824 08:55:36.209199 17213 net.cpp:150] Setting up conv9_2_conv9_2_relu_0_split
I0824 08:55:36.209200 17213 net.cpp:157] Top shape: 8 256 1 1 (2048)
I0824 08:55:36.209203 17213 net.cpp:157] Top shape: 8 256 1 1 (2048)
I0824 08:55:36.209205 17213 net.cpp:157] Top shape: 8 256 1 1 (2048)
I0824 08:55:36.209208 17213 net.cpp:165] Memory required for data: 1882243136
I0824 08:55:36.209208 17213 layer_factory.hpp:77] Creating layer conv4_3_norm
I0824 08:55:36.209213 17213 net.cpp:100] Creating Layer conv4_3_norm
I0824 08:55:36.209214 17213 net.cpp:434] conv4_3_norm <- conv4_3_relu4_3_0_split_1
I0824 08:55:36.209216 17213 net.cpp:408] conv4_3_norm -> conv4_3_norm
I0824 08:55:36.209229 17213 net.cpp:150] Setting up conv4_3_norm
I0824 08:55:36.209231 17213 net.cpp:157] Top shape: 8 512 38 38 (5914624)
I0824 08:55:36.209233 17213 net.cpp:165] Memory required for data: 1905901632
I0824 08:55:36.209236 17213 layer_factory.hpp:77] Creating layer conv4_3_norm_conv4_3_norm_0_split
I0824 08:55:36.209239 17213 net.cpp:100] Creating Layer conv4_3_norm_conv4_3_norm_0_split
I0824 08:55:36.209241 17213 net.cpp:434] conv4_3_norm_conv4_3_norm_0_split <- conv4_3_norm
I0824 08:55:36.209244 17213 net.cpp:408] conv4_3_norm_conv4_3_norm_0_split -> conv4_3_norm_conv4_3_norm_0_split_0
I0824 08:55:36.209246 17213 net.cpp:408] conv4_3_norm_conv4_3_norm_0_split -> conv4_3_norm_conv4_3_norm_0_split_1
I0824 08:55:36.209249 17213 net.cpp:408] conv4_3_norm_conv4_3_norm_0_split -> conv4_3_norm_conv4_3_norm_0_split_2
I0824 08:55:36.209254 17213 net.cpp:150] Setting up conv4_3_norm_conv4_3_norm_0_split
I0824 08:55:36.209255 17213 net.cpp:157] Top shape: 8 512 38 38 (5914624)
I0824 08:55:36.209257 17213 net.cpp:157] Top shape: 8 512 38 38 (5914624)
I0824 08:55:36.209259 17213 net.cpp:157] Top shape: 8 512 38 38 (5914624)
I0824 08:55:36.209261 17213 net.cpp:165] Memory required for data: 1976877120
I0824 08:55:36.209264 17213 layer_factory.hpp:77] Creating layer conv4_3_norm_mbox_loc
I0824 08:55:36.209268 17213 net.cpp:100] Creating Layer conv4_3_norm_mbox_loc
I0824 08:55:36.209270 17213 net.cpp:434] conv4_3_norm_mbox_loc <- conv4_3_norm_conv4_3_norm_0_split_0
I0824 08:55:36.209273 17213 net.cpp:408] conv4_3_norm_mbox_loc -> conv4_3_norm_mbox_loc
I0824 08:55:36.209517 17213 net.cpp:150] Setting up conv4_3_norm_mbox_loc
I0824 08:55:36.209519 17213 net.cpp:157] Top shape: 8 16 38 38 (184832)
I0824 08:55:36.209522 17213 net.cpp:165] Memory required for data: 1977616448
I0824 08:55:36.209524 17213 layer_factory.hpp:77] Creating layer conv4_3_norm_mbox_loc_perm
I0824 08:55:36.209527 17213 net.cpp:100] Creating Layer conv4_3_norm_mbox_loc_perm
I0824 08:55:36.209529 17213 net.cpp:434] conv4_3_norm_mbox_loc_perm <- conv4_3_norm_mbox_loc
I0824 08:55:36.209532 17213 net.cpp:408] conv4_3_norm_mbox_loc_perm -> conv4_3_norm_mbox_loc_perm
I0824 08:55:36.209537 17213 net.cpp:150] Setting up conv4_3_norm_mbox_loc_perm
I0824 08:55:36.209538 17213 net.cpp:157] Top shape: 8 38 38 16 (184832)
I0824 08:55:36.209540 17213 net.cpp:165] Memory required for data: 1978355776
I0824 08:55:36.209542 17213 layer_factory.hpp:77] Creating layer conv4_3_norm_mbox_loc_flat
I0824 08:55:36.209547 17213 net.cpp:100] Creating Layer conv4_3_norm_mbox_loc_flat
I0824 08:55:36.209554 17213 net.cpp:434] conv4_3_norm_mbox_loc_flat <- conv4_3_norm_mbox_loc_perm
I0824 08:55:36.209558 17213 net.cpp:408] conv4_3_norm_mbox_loc_flat -> conv4_3_norm_mbox_loc_flat
I0824 08:55:36.209564 17213 net.cpp:150] Setting up conv4_3_norm_mbox_loc_flat
I0824 08:55:36.209565 17213 net.cpp:157] Top shape: 8 23104 (184832)
I0824 08:55:36.209568 17213 net.cpp:165] Memory required for data: 1979095104
I0824 08:55:36.209569 17213 layer_factory.hpp:77] Creating layer conv4_3_norm_mbox_conf
I0824 08:55:36.209576 17213 net.cpp:100] Creating Layer conv4_3_norm_mbox_conf
I0824 08:55:36.209578 17213 net.cpp:434] conv4_3_norm_mbox_conf <- conv4_3_norm_conv4_3_norm_0_split_1
I0824 08:55:36.209581 17213 net.cpp:408] conv4_3_norm_mbox_conf -> conv4_3_norm_mbox_conf
I0824 08:55:36.211010 17213 net.cpp:150] Setting up conv4_3_norm_mbox_conf
I0824 08:55:36.211017 17213 net.cpp:157] Top shape: 8 84 38 38 (970368)
I0824 08:55:36.211020 17213 net.cpp:165] Memory required for data: 1982976576
I0824 08:55:36.211025 17213 layer_factory.hpp:77] Creating layer conv4_3_norm_mbox_conf_perm
I0824 08:55:36.211030 17213 net.cpp:100] Creating Layer conv4_3_norm_mbox_conf_perm
I0824 08:55:36.211032 17213 net.cpp:434] conv4_3_norm_mbox_conf_perm <- conv4_3_norm_mbox_conf
I0824 08:55:36.211036 17213 net.cpp:408] conv4_3_norm_mbox_conf_perm -> conv4_3_norm_mbox_conf_perm
I0824 08:55:36.211042 17213 net.cpp:150] Setting up conv4_3_norm_mbox_conf_perm
I0824 08:55:36.211045 17213 net.cpp:157] Top shape: 8 38 38 84 (970368)
I0824 08:55:36.211046 17213 net.cpp:165] Memory required for data: 1986858048
I0824 08:55:36.211048 17213 layer_factory.hpp:77] Creating layer conv4_3_norm_mbox_conf_flat
I0824 08:55:36.211053 17213 net.cpp:100] Creating Layer conv4_3_norm_mbox_conf_flat
I0824 08:55:36.211055 17213 net.cpp:434] conv4_3_norm_mbox_conf_flat <- conv4_3_norm_mbox_conf_perm
I0824 08:55:36.211057 17213 net.cpp:408] conv4_3_norm_mbox_conf_flat -> conv4_3_norm_mbox_conf_flat
I0824 08:55:36.211061 17213 net.cpp:150] Setting up conv4_3_norm_mbox_conf_flat
I0824 08:55:36.211062 17213 net.cpp:157] Top shape: 8 121296 (970368)
I0824 08:55:36.211064 17213 net.cpp:165] Memory required for data: 1990739520
I0824 08:55:36.211066 17213 layer_factory.hpp:77] Creating layer conv4_3_norm_mbox_priorbox
I0824 08:55:36.211071 17213 net.cpp:100] Creating Layer conv4_3_norm_mbox_priorbox
I0824 08:55:36.211072 17213 net.cpp:434] conv4_3_norm_mbox_priorbox <- conv4_3_norm_conv4_3_norm_0_split_2
I0824 08:55:36.211076 17213 net.cpp:434] conv4_3_norm_mbox_priorbox <- data_data_0_split_1
I0824 08:55:36.211077 17213 net.cpp:408] conv4_3_norm_mbox_priorbox -> conv4_3_norm_mbox_priorbox
I0824 08:55:36.211083 17213 net.cpp:150] Setting up conv4_3_norm_mbox_priorbox
I0824 08:55:36.211084 17213 net.cpp:157] Top shape: 1 2 23104 (46208)
I0824 08:55:36.211087 17213 net.cpp:165] Memory required for data: 1990924352
I0824 08:55:36.211089 17213 layer_factory.hpp:77] Creating layer fc7_mbox_loc
I0824 08:55:36.211094 17213 net.cpp:100] Creating Layer fc7_mbox_loc
I0824 08:55:36.211097 17213 net.cpp:434] fc7_mbox_loc <- fc7_relu7_0_split_1
I0824 08:55:36.211099 17213 net.cpp:408] fc7_mbox_loc -> fc7_mbox_loc
I0824 08:55:36.211867 17213 net.cpp:150] Setting up fc7_mbox_loc
I0824 08:55:36.211872 17213 net.cpp:157] Top shape: 8 24 19 19 (69312)
I0824 08:55:36.211875 17213 net.cpp:165] Memory required for data: 1991201600
I0824 08:55:36.211879 17213 layer_factory.hpp:77] Creating layer fc7_mbox_loc_perm
I0824 08:55:36.211884 17213 net.cpp:100] Creating Layer fc7_mbox_loc_perm
I0824 08:55:36.211885 17213 net.cpp:434] fc7_mbox_loc_perm <- fc7_mbox_loc
I0824 08:55:36.211889 17213 net.cpp:408] fc7_mbox_loc_perm -> fc7_mbox_loc_perm
I0824 08:55:36.211894 17213 net.cpp:150] Setting up fc7_mbox_loc_perm
I0824 08:55:36.211896 17213 net.cpp:157] Top shape: 8 19 19 24 (69312)
I0824 08:55:36.211899 17213 net.cpp:165] Memory required for data: 1991478848
I0824 08:55:36.211899 17213 layer_factory.hpp:77] Creating layer fc7_mbox_loc_flat
I0824 08:55:36.211921 17213 net.cpp:100] Creating Layer fc7_mbox_loc_flat
I0824 08:55:36.211923 17213 net.cpp:434] fc7_mbox_loc_flat <- fc7_mbox_loc_perm
I0824 08:55:36.211925 17213 net.cpp:408] fc7_mbox_loc_flat -> fc7_mbox_loc_flat
I0824 08:55:36.211930 17213 net.cpp:150] Setting up fc7_mbox_loc_flat
I0824 08:55:36.211931 17213 net.cpp:157] Top shape: 8 8664 (69312)
I0824 08:55:36.211933 17213 net.cpp:165] Memory required for data: 1991756096
I0824 08:55:36.211935 17213 layer_factory.hpp:77] Creating layer fc7_mbox_conf
I0824 08:55:36.211939 17213 net.cpp:100] Creating Layer fc7_mbox_conf
I0824 08:55:36.211941 17213 net.cpp:434] fc7_mbox_conf <- fc7_relu7_0_split_2
I0824 08:55:36.211947 17213 net.cpp:408] fc7_mbox_conf -> fc7_mbox_conf
I0824 08:55:36.216219 17213 net.cpp:150] Setting up fc7_mbox_conf
I0824 08:55:36.216230 17213 net.cpp:157] Top shape: 8 126 19 19 (363888)
I0824 08:55:36.216234 17213 net.cpp:165] Memory required for data: 1993211648
I0824 08:55:36.216240 17213 layer_factory.hpp:77] Creating layer fc7_mbox_conf_perm
I0824 08:55:36.216246 17213 net.cpp:100] Creating Layer fc7_mbox_conf_perm
I0824 08:55:36.216249 17213 net.cpp:434] fc7_mbox_conf_perm <- fc7_mbox_conf
I0824 08:55:36.216254 17213 net.cpp:408] fc7_mbox_conf_perm -> fc7_mbox_conf_perm
I0824 08:55:36.216261 17213 net.cpp:150] Setting up fc7_mbox_conf_perm
I0824 08:55:36.216264 17213 net.cpp:157] Top shape: 8 19 19 126 (363888)
I0824 08:55:36.216265 17213 net.cpp:165] Memory required for data: 1994667200
I0824 08:55:36.216266 17213 layer_factory.hpp:77] Creating layer fc7_mbox_conf_flat
I0824 08:55:36.216274 17213 net.cpp:100] Creating Layer fc7_mbox_conf_flat
I0824 08:55:36.216277 17213 net.cpp:434] fc7_mbox_conf_flat <- fc7_mbox_conf_perm
I0824 08:55:36.216279 17213 net.cpp:408] fc7_mbox_conf_flat -> fc7_mbox_conf_flat
I0824 08:55:36.216284 17213 net.cpp:150] Setting up fc7_mbox_conf_flat
I0824 08:55:36.216284 17213 net.cpp:157] Top shape: 8 45486 (363888)
I0824 08:55:36.216287 17213 net.cpp:165] Memory required for data: 1996122752
I0824 08:55:36.216289 17213 layer_factory.hpp:77] Creating layer fc7_mbox_priorbox
I0824 08:55:36.216292 17213 net.cpp:100] Creating Layer fc7_mbox_priorbox
I0824 08:55:36.216295 17213 net.cpp:434] fc7_mbox_priorbox <- fc7_relu7_0_split_3
I0824 08:55:36.216298 17213 net.cpp:434] fc7_mbox_priorbox <- data_data_0_split_2
I0824 08:55:36.216300 17213 net.cpp:408] fc7_mbox_priorbox -> fc7_mbox_priorbox
I0824 08:55:36.216308 17213 net.cpp:150] Setting up fc7_mbox_priorbox
I0824 08:55:36.216310 17213 net.cpp:157] Top shape: 1 2 8664 (17328)
I0824 08:55:36.216312 17213 net.cpp:165] Memory required for data: 1996192064
I0824 08:55:36.216313 17213 layer_factory.hpp:77] Creating layer conv6_2_mbox_loc
I0824 08:55:36.216318 17213 net.cpp:100] Creating Layer conv6_2_mbox_loc
I0824 08:55:36.216321 17213 net.cpp:434] conv6_2_mbox_loc <- conv6_2_conv6_2_relu_0_split_1
I0824 08:55:36.216324 17213 net.cpp:408] conv6_2_mbox_loc -> conv6_2_mbox_loc
I0824 08:55:36.216758 17213 net.cpp:150] Setting up conv6_2_mbox_loc
I0824 08:55:36.216763 17213 net.cpp:157] Top shape: 8 24 10 10 (19200)
I0824 08:55:36.216766 17213 net.cpp:165] Memory required for data: 1996268864
I0824 08:55:36.216770 17213 layer_factory.hpp:77] Creating layer conv6_2_mbox_loc_perm
I0824 08:55:36.216774 17213 net.cpp:100] Creating Layer conv6_2_mbox_loc_perm
I0824 08:55:36.216778 17213 net.cpp:434] conv6_2_mbox_loc_perm <- conv6_2_mbox_loc
I0824 08:55:36.216779 17213 net.cpp:408] conv6_2_mbox_loc_perm -> conv6_2_mbox_loc_perm
I0824 08:55:36.216787 17213 net.cpp:150] Setting up conv6_2_mbox_loc_perm
I0824 08:55:36.216789 17213 net.cpp:157] Top shape: 8 10 10 24 (19200)
I0824 08:55:36.216791 17213 net.cpp:165] Memory required for data: 1996345664
I0824 08:55:36.216794 17213 layer_factory.hpp:77] Creating layer conv6_2_mbox_loc_flat
I0824 08:55:36.216795 17213 net.cpp:100] Creating Layer conv6_2_mbox_loc_flat
I0824 08:55:36.216799 17213 net.cpp:434] conv6_2_mbox_loc_flat <- conv6_2_mbox_loc_perm
I0824 08:55:36.216800 17213 net.cpp:408] conv6_2_mbox_loc_flat -> conv6_2_mbox_loc_flat
I0824 08:55:36.216821 17213 net.cpp:150] Setting up conv6_2_mbox_loc_flat
I0824 08:55:36.216822 17213 net.cpp:157] Top shape: 8 2400 (19200)
I0824 08:55:36.216825 17213 net.cpp:165] Memory required for data: 1996422464
I0824 08:55:36.216826 17213 layer_factory.hpp:77] Creating layer conv6_2_mbox_conf
I0824 08:55:36.216831 17213 net.cpp:100] Creating Layer conv6_2_mbox_conf
I0824 08:55:36.216833 17213 net.cpp:434] conv6_2_mbox_conf <- conv6_2_conv6_2_relu_0_split_2
I0824 08:55:36.216838 17213 net.cpp:408] conv6_2_mbox_conf -> conv6_2_mbox_conf
I0824 08:55:36.218828 17213 net.cpp:150] Setting up conv6_2_mbox_conf
I0824 08:55:36.218842 17213 net.cpp:157] Top shape: 8 126 10 10 (100800)
I0824 08:55:36.218844 17213 net.cpp:165] Memory required for data: 1996825664
I0824 08:55:36.218848 17213 layer_factory.hpp:77] Creating layer conv6_2_mbox_conf_perm
I0824 08:55:36.218852 17213 net.cpp:100] Creating Layer conv6_2_mbox_conf_perm
I0824 08:55:36.218855 17213 net.cpp:434] conv6_2_mbox_conf_perm <- conv6_2_mbox_conf
I0824 08:55:36.218859 17213 net.cpp:408] conv6_2_mbox_conf_perm -> conv6_2_mbox_conf_perm
I0824 08:55:36.218866 17213 net.cpp:150] Setting up conv6_2_mbox_conf_perm
I0824 08:55:36.218868 17213 net.cpp:157] Top shape: 8 10 10 126 (100800)
I0824 08:55:36.218870 17213 net.cpp:165] Memory required for data: 1997228864
I0824 08:55:36.218871 17213 layer_factory.hpp:77] Creating layer conv6_2_mbox_conf_flat
I0824 08:55:36.218875 17213 net.cpp:100] Creating Layer conv6_2_mbox_conf_flat
I0824 08:55:36.218878 17213 net.cpp:434] conv6_2_mbox_conf_flat <- conv6_2_mbox_conf_perm
I0824 08:55:36.218879 17213 net.cpp:408] conv6_2_mbox_conf_flat -> conv6_2_mbox_conf_flat
I0824 08:55:36.218883 17213 net.cpp:150] Setting up conv6_2_mbox_conf_flat
I0824 08:55:36.218884 17213 net.cpp:157] Top shape: 8 12600 (100800)
I0824 08:55:36.218886 17213 net.cpp:165] Memory required for data: 1997632064
I0824 08:55:36.218888 17213 layer_factory.hpp:77] Creating layer conv6_2_mbox_priorbox
I0824 08:55:36.218892 17213 net.cpp:100] Creating Layer conv6_2_mbox_priorbox
I0824 08:55:36.218894 17213 net.cpp:434] conv6_2_mbox_priorbox <- conv6_2_conv6_2_relu_0_split_3
I0824 08:55:36.218897 17213 net.cpp:434] conv6_2_mbox_priorbox <- data_data_0_split_3
I0824 08:55:36.218900 17213 net.cpp:408] conv6_2_mbox_priorbox -> conv6_2_mbox_priorbox
I0824 08:55:36.218904 17213 net.cpp:150] Setting up conv6_2_mbox_priorbox
I0824 08:55:36.218906 17213 net.cpp:157] Top shape: 1 2 2400 (4800)
I0824 08:55:36.218909 17213 net.cpp:165] Memory required for data: 1997651264
I0824 08:55:36.218910 17213 layer_factory.hpp:77] Creating layer conv7_2_mbox_loc
I0824 08:55:36.218915 17213 net.cpp:100] Creating Layer conv7_2_mbox_loc
I0824 08:55:36.218920 17213 net.cpp:434] conv7_2_mbox_loc <- conv7_2_conv7_2_relu_0_split_1
I0824 08:55:36.218924 17213 net.cpp:408] conv7_2_mbox_loc -> conv7_2_mbox_loc
I0824 08:55:36.219112 17213 net.cpp:150] Setting up conv7_2_mbox_loc
I0824 08:55:36.219115 17213 net.cpp:157] Top shape: 8 24 5 5 (4800)
I0824 08:55:36.219116 17213 net.cpp:165] Memory required for data: 1997670464
I0824 08:55:36.219120 17213 layer_factory.hpp:77] Creating layer conv7_2_mbox_loc_perm
I0824 08:55:36.219125 17213 net.cpp:100] Creating Layer conv7_2_mbox_loc_perm
I0824 08:55:36.219126 17213 net.cpp:434] conv7_2_mbox_loc_perm <- conv7_2_mbox_loc
I0824 08:55:36.219128 17213 net.cpp:408] conv7_2_mbox_loc_perm -> conv7_2_mbox_loc_perm
I0824 08:55:36.219133 17213 net.cpp:150] Setting up conv7_2_mbox_loc_perm
I0824 08:55:36.219136 17213 net.cpp:157] Top shape: 8 5 5 24 (4800)
I0824 08:55:36.219138 17213 net.cpp:165] Memory required for data: 1997689664
I0824 08:55:36.219139 17213 layer_factory.hpp:77] Creating layer conv7_2_mbox_loc_flat
I0824 08:55:36.219141 17213 net.cpp:100] Creating Layer conv7_2_mbox_loc_flat
I0824 08:55:36.219146 17213 net.cpp:434] conv7_2_mbox_loc_flat <- conv7_2_mbox_loc_perm
I0824 08:55:36.219149 17213 net.cpp:408] conv7_2_mbox_loc_flat -> conv7_2_mbox_loc_flat
I0824 08:55:36.219152 17213 net.cpp:150] Setting up conv7_2_mbox_loc_flat
I0824 08:55:36.219166 17213 net.cpp:157] Top shape: 8 600 (4800)
I0824 08:55:36.219167 17213 net.cpp:165] Memory required for data: 1997708864
I0824 08:55:36.219169 17213 layer_factory.hpp:77] Creating layer conv7_2_mbox_conf
I0824 08:55:36.219175 17213 net.cpp:100] Creating Layer conv7_2_mbox_conf
I0824 08:55:36.219177 17213 net.cpp:434] conv7_2_mbox_conf <- conv7_2_conv7_2_relu_0_split_2
I0824 08:55:36.219180 17213 net.cpp:408] conv7_2_mbox_conf -> conv7_2_mbox_conf
I0824 08:55:36.220275 17213 net.cpp:150] Setting up conv7_2_mbox_conf
I0824 08:55:36.220283 17213 net.cpp:157] Top shape: 8 126 5 5 (25200)
I0824 08:55:36.220289 17213 net.cpp:165] Memory required for data: 1997809664
I0824 08:55:36.220294 17213 layer_factory.hpp:77] Creating layer conv7_2_mbox_conf_perm
I0824 08:55:36.220299 17213 net.cpp:100] Creating Layer conv7_2_mbox_conf_perm
I0824 08:55:36.220300 17213 net.cpp:434] conv7_2_mbox_conf_perm <- conv7_2_mbox_conf
I0824 08:55:36.220305 17213 net.cpp:408] conv7_2_mbox_conf_perm -> conv7_2_mbox_conf_perm
I0824 08:55:36.220312 17213 net.cpp:150] Setting up conv7_2_mbox_conf_perm
I0824 08:55:36.220314 17213 net.cpp:157] Top shape: 8 5 5 126 (25200)
I0824 08:55:36.220315 17213 net.cpp:165] Memory required for data: 1997910464
I0824 08:55:36.220317 17213 layer_factory.hpp:77] Creating layer conv7_2_mbox_conf_flat
I0824 08:55:36.220321 17213 net.cpp:100] Creating Layer conv7_2_mbox_conf_flat
I0824 08:55:36.220324 17213 net.cpp:434] conv7_2_mbox_conf_flat <- conv7_2_mbox_conf_perm
I0824 08:55:36.220325 17213 net.cpp:408] conv7_2_mbox_conf_flat -> conv7_2_mbox_conf_flat
I0824 08:55:36.220328 17213 net.cpp:150] Setting up conv7_2_mbox_conf_flat
I0824 08:55:36.220329 17213 net.cpp:157] Top shape: 8 3150 (25200)
I0824 08:55:36.220335 17213 net.cpp:165] Memory required for data: 1998011264
I0824 08:55:36.220335 17213 layer_factory.hpp:77] Creating layer conv7_2_mbox_priorbox
I0824 08:55:36.220340 17213 net.cpp:100] Creating Layer conv7_2_mbox_priorbox
I0824 08:55:36.220341 17213 net.cpp:434] conv7_2_mbox_priorbox <- conv7_2_conv7_2_relu_0_split_3
I0824 08:55:36.220343 17213 net.cpp:434] conv7_2_mbox_priorbox <- data_data_0_split_4
I0824 08:55:36.220346 17213 net.cpp:408] conv7_2_mbox_priorbox -> conv7_2_mbox_priorbox
I0824 08:55:36.220351 17213 net.cpp:150] Setting up conv7_2_mbox_priorbox
I0824 08:55:36.220353 17213 net.cpp:157] Top shape: 1 2 600 (1200)
I0824 08:55:36.220355 17213 net.cpp:165] Memory required for data: 1998016064
I0824 08:55:36.220356 17213 layer_factory.hpp:77] Creating layer conv8_2_mbox_loc
I0824 08:55:36.220361 17213 net.cpp:100] Creating Layer conv8_2_mbox_loc
I0824 08:55:36.220363 17213 net.cpp:434] conv8_2_mbox_loc <- conv8_2_conv8_2_relu_0_split_1
I0824 08:55:36.220366 17213 net.cpp:408] conv8_2_mbox_loc -> conv8_2_mbox_loc
I0824 08:55:36.220497 17213 net.cpp:150] Setting up conv8_2_mbox_loc
I0824 08:55:36.220499 17213 net.cpp:157] Top shape: 8 16 3 3 (1152)
I0824 08:55:36.220501 17213 net.cpp:165] Memory required for data: 1998020672
I0824 08:55:36.220508 17213 layer_factory.hpp:77] Creating layer conv8_2_mbox_loc_perm
I0824 08:55:36.220513 17213 net.cpp:100] Creating Layer conv8_2_mbox_loc_perm
I0824 08:55:36.220515 17213 net.cpp:434] conv8_2_mbox_loc_perm <- conv8_2_mbox_loc
I0824 08:55:36.220517 17213 net.cpp:408] conv8_2_mbox_loc_perm -> conv8_2_mbox_loc_perm
I0824 08:55:36.220522 17213 net.cpp:150] Setting up conv8_2_mbox_loc_perm
I0824 08:55:36.220525 17213 net.cpp:157] Top shape: 8 3 3 16 (1152)
I0824 08:55:36.220526 17213 net.cpp:165] Memory required for data: 1998025280
I0824 08:55:36.220527 17213 layer_factory.hpp:77] Creating layer conv8_2_mbox_loc_flat
I0824 08:55:36.220530 17213 net.cpp:100] Creating Layer conv8_2_mbox_loc_flat
I0824 08:55:36.220531 17213 net.cpp:434] conv8_2_mbox_loc_flat <- conv8_2_mbox_loc_perm
I0824 08:55:36.220536 17213 net.cpp:408] conv8_2_mbox_loc_flat -> conv8_2_mbox_loc_flat
I0824 08:55:36.220539 17213 net.cpp:150] Setting up conv8_2_mbox_loc_flat
I0824 08:55:36.220541 17213 net.cpp:157] Top shape: 8 144 (1152)
I0824 08:55:36.220543 17213 net.cpp:165] Memory required for data: 1998029888
I0824 08:55:36.220557 17213 layer_factory.hpp:77] Creating layer conv8_2_mbox_conf
I0824 08:55:36.220562 17213 net.cpp:100] Creating Layer conv8_2_mbox_conf
I0824 08:55:36.220564 17213 net.cpp:434] conv8_2_mbox_conf <- conv8_2_conv8_2_relu_0_split_2
I0824 08:55:36.220567 17213 net.cpp:408] conv8_2_mbox_conf -> conv8_2_mbox_conf
I0824 08:55:36.221261 17213 net.cpp:150] Setting up conv8_2_mbox_conf
I0824 08:55:36.221266 17213 net.cpp:157] Top shape: 8 84 3 3 (6048)
I0824 08:55:36.221268 17213 net.cpp:165] Memory required for data: 1998054080
I0824 08:55:36.221272 17213 layer_factory.hpp:77] Creating layer conv8_2_mbox_conf_perm
I0824 08:55:36.221276 17213 net.cpp:100] Creating Layer conv8_2_mbox_conf_perm
I0824 08:55:36.221279 17213 net.cpp:434] conv8_2_mbox_conf_perm <- conv8_2_mbox_conf
I0824 08:55:36.221283 17213 net.cpp:408] conv8_2_mbox_conf_perm -> conv8_2_mbox_conf_perm
I0824 08:55:36.221290 17213 net.cpp:150] Setting up conv8_2_mbox_conf_perm
I0824 08:55:36.221292 17213 net.cpp:157] Top shape: 8 3 3 84 (6048)
I0824 08:55:36.221294 17213 net.cpp:165] Memory required for data: 1998078272
I0824 08:55:36.221295 17213 layer_factory.hpp:77] Creating layer conv8_2_mbox_conf_flat
I0824 08:55:36.221299 17213 net.cpp:100] Creating Layer conv8_2_mbox_conf_flat
I0824 08:55:36.221302 17213 net.cpp:434] conv8_2_mbox_conf_flat <- conv8_2_mbox_conf_perm
I0824 08:55:36.221303 17213 net.cpp:408] conv8_2_mbox_conf_flat -> conv8_2_mbox_conf_flat
I0824 08:55:36.221307 17213 net.cpp:150] Setting up conv8_2_mbox_conf_flat
I0824 08:55:36.221308 17213 net.cpp:157] Top shape: 8 756 (6048)
I0824 08:55:36.221309 17213 net.cpp:165] Memory required for data: 1998102464
I0824 08:55:36.221311 17213 layer_factory.hpp:77] Creating layer conv8_2_mbox_priorbox
I0824 08:55:36.221316 17213 net.cpp:100] Creating Layer conv8_2_mbox_priorbox
I0824 08:55:36.221318 17213 net.cpp:434] conv8_2_mbox_priorbox <- conv8_2_conv8_2_relu_0_split_3
I0824 08:55:36.221321 17213 net.cpp:434] conv8_2_mbox_priorbox <- data_data_0_split_5
I0824 08:55:36.221324 17213 net.cpp:408] conv8_2_mbox_priorbox -> conv8_2_mbox_priorbox
I0824 08:55:36.221328 17213 net.cpp:150] Setting up conv8_2_mbox_priorbox
I0824 08:55:36.221330 17213 net.cpp:157] Top shape: 1 2 144 (288)
I0824 08:55:36.221333 17213 net.cpp:165] Memory required for data: 1998103616
I0824 08:55:36.221334 17213 layer_factory.hpp:77] Creating layer conv9_2_mbox_loc
I0824 08:55:36.221341 17213 net.cpp:100] Creating Layer conv9_2_mbox_loc
I0824 08:55:36.221343 17213 net.cpp:434] conv9_2_mbox_loc <- conv9_2_conv9_2_relu_0_split_0
I0824 08:55:36.221346 17213 net.cpp:408] conv9_2_mbox_loc -> conv9_2_mbox_loc
I0824 08:55:36.221479 17213 net.cpp:150] Setting up conv9_2_mbox_loc
I0824 08:55:36.221482 17213 net.cpp:157] Top shape: 8 16 1 1 (128)
I0824 08:55:36.221484 17213 net.cpp:165] Memory required for data: 1998104128
I0824 08:55:36.221486 17213 layer_factory.hpp:77] Creating layer conv9_2_mbox_loc_perm
I0824 08:55:36.221490 17213 net.cpp:100] Creating Layer conv9_2_mbox_loc_perm
I0824 08:55:36.221493 17213 net.cpp:434] conv9_2_mbox_loc_perm <- conv9_2_mbox_loc
I0824 08:55:36.221495 17213 net.cpp:408] conv9_2_mbox_loc_perm -> conv9_2_mbox_loc_perm
I0824 08:55:36.221499 17213 net.cpp:150] Setting up conv9_2_mbox_loc_perm
I0824 08:55:36.221501 17213 net.cpp:157] Top shape: 8 1 1 16 (128)
I0824 08:55:36.221504 17213 net.cpp:165] Memory required for data: 1998104640
I0824 08:55:36.221506 17213 layer_factory.hpp:77] Creating layer conv9_2_mbox_loc_flat
I0824 08:55:36.221508 17213 net.cpp:100] Creating Layer conv9_2_mbox_loc_flat
I0824 08:55:36.221511 17213 net.cpp:434] conv9_2_mbox_loc_flat <- conv9_2_mbox_loc_perm
I0824 08:55:36.221513 17213 net.cpp:408] conv9_2_mbox_loc_flat -> conv9_2_mbox_loc_flat
I0824 08:55:36.221518 17213 net.cpp:150] Setting up conv9_2_mbox_loc_flat
I0824 08:55:36.221518 17213 net.cpp:157] Top shape: 8 16 (128)
I0824 08:55:36.221520 17213 net.cpp:165] Memory required for data: 1998105152
I0824 08:55:36.221522 17213 layer_factory.hpp:77] Creating layer conv9_2_mbox_conf
I0824 08:55:36.221539 17213 net.cpp:100] Creating Layer conv9_2_mbox_conf
I0824 08:55:36.221542 17213 net.cpp:434] conv9_2_mbox_conf <- conv9_2_conv9_2_relu_0_split_1
I0824 08:55:36.221545 17213 net.cpp:408] conv9_2_mbox_conf -> conv9_2_mbox_conf
I0824 08:55:36.222247 17213 net.cpp:150] Setting up conv9_2_mbox_conf
I0824 08:55:36.222255 17213 net.cpp:157] Top shape: 8 84 1 1 (672)
I0824 08:55:36.222258 17213 net.cpp:165] Memory required for data: 1998107840
I0824 08:55:36.222262 17213 layer_factory.hpp:77] Creating layer conv9_2_mbox_conf_perm
I0824 08:55:36.222266 17213 net.cpp:100] Creating Layer conv9_2_mbox_conf_perm
I0824 08:55:36.222270 17213 net.cpp:434] conv9_2_mbox_conf_perm <- conv9_2_mbox_conf
I0824 08:55:36.222273 17213 net.cpp:408] conv9_2_mbox_conf_perm -> conv9_2_mbox_conf_perm
I0824 08:55:36.222278 17213 net.cpp:150] Setting up conv9_2_mbox_conf_perm
I0824 08:55:36.222280 17213 net.cpp:157] Top shape: 8 1 1 84 (672)
I0824 08:55:36.222282 17213 net.cpp:165] Memory required for data: 1998110528
I0824 08:55:36.222283 17213 layer_factory.hpp:77] Creating layer conv9_2_mbox_conf_flat
I0824 08:55:36.222286 17213 net.cpp:100] Creating Layer conv9_2_mbox_conf_flat
I0824 08:55:36.222288 17213 net.cpp:434] conv9_2_mbox_conf_flat <- conv9_2_mbox_conf_perm
I0824 08:55:36.222291 17213 net.cpp:408] conv9_2_mbox_conf_flat -> conv9_2_mbox_conf_flat
I0824 08:55:36.222294 17213 net.cpp:150] Setting up conv9_2_mbox_conf_flat
I0824 08:55:36.222296 17213 net.cpp:157] Top shape: 8 84 (672)
I0824 08:55:36.222297 17213 net.cpp:165] Memory required for data: 1998113216
I0824 08:55:36.222299 17213 layer_factory.hpp:77] Creating layer conv9_2_mbox_priorbox
I0824 08:55:36.222303 17213 net.cpp:100] Creating Layer conv9_2_mbox_priorbox
I0824 08:55:36.222306 17213 net.cpp:434] conv9_2_mbox_priorbox <- conv9_2_conv9_2_relu_0_split_2
I0824 08:55:36.222307 17213 net.cpp:434] conv9_2_mbox_priorbox <- data_data_0_split_6
I0824 08:55:36.222309 17213 net.cpp:408] conv9_2_mbox_priorbox -> conv9_2_mbox_priorbox
I0824 08:55:36.222313 17213 net.cpp:150] Setting up conv9_2_mbox_priorbox
I0824 08:55:36.222316 17213 net.cpp:157] Top shape: 1 2 16 (32)
I0824 08:55:36.222317 17213 net.cpp:165] Memory required for data: 1998113344
I0824 08:55:36.222318 17213 layer_factory.hpp:77] Creating layer mbox_loc
I0824 08:55:36.222323 17213 net.cpp:100] Creating Layer mbox_loc
I0824 08:55:36.222326 17213 net.cpp:434] mbox_loc <- conv4_3_norm_mbox_loc_flat
I0824 08:55:36.222329 17213 net.cpp:434] mbox_loc <- fc7_mbox_loc_flat
I0824 08:55:36.222332 17213 net.cpp:434] mbox_loc <- conv6_2_mbox_loc_flat
I0824 08:55:36.222335 17213 net.cpp:434] mbox_loc <- conv7_2_mbox_loc_flat
I0824 08:55:36.222338 17213 net.cpp:434] mbox_loc <- conv8_2_mbox_loc_flat
I0824 08:55:36.222340 17213 net.cpp:434] mbox_loc <- conv9_2_mbox_loc_flat
I0824 08:55:36.222343 17213 net.cpp:408] mbox_loc -> mbox_loc
I0824 08:55:36.222347 17213 net.cpp:150] Setting up mbox_loc
I0824 08:55:36.222349 17213 net.cpp:157] Top shape: 8 34928 (279424)
I0824 08:55:36.222352 17213 net.cpp:165] Memory required for data: 1999231040
I0824 08:55:36.222353 17213 layer_factory.hpp:77] Creating layer mbox_conf
I0824 08:55:36.222357 17213 net.cpp:100] Creating Layer mbox_conf
I0824 08:55:36.222359 17213 net.cpp:434] mbox_conf <- conv4_3_norm_mbox_conf_flat
I0824 08:55:36.222362 17213 net.cpp:434] mbox_conf <- fc7_mbox_conf_flat
I0824 08:55:36.222365 17213 net.cpp:434] mbox_conf <- conv6_2_mbox_conf_flat
I0824 08:55:36.222368 17213 net.cpp:434] mbox_conf <- conv7_2_mbox_conf_flat
I0824 08:55:36.222370 17213 net.cpp:434] mbox_conf <- conv8_2_mbox_conf_flat
I0824 08:55:36.222373 17213 net.cpp:434] mbox_conf <- conv9_2_mbox_conf_flat
I0824 08:55:36.222375 17213 net.cpp:408] mbox_conf -> mbox_conf
I0824 08:55:36.222378 17213 net.cpp:150] Setting up mbox_conf
I0824 08:55:36.222379 17213 net.cpp:157] Top shape: 8 183372 (1466976)
I0824 08:55:36.222381 17213 net.cpp:165] Memory required for data: 2005098944
I0824 08:55:36.222383 17213 layer_factory.hpp:77] Creating layer mbox_priorbox
I0824 08:55:36.222385 17213 net.cpp:100] Creating Layer mbox_priorbox
I0824 08:55:36.222399 17213 net.cpp:434] mbox_priorbox <- conv4_3_norm_mbox_priorbox
I0824 08:55:36.222401 17213 net.cpp:434] mbox_priorbox <- fc7_mbox_priorbox
I0824 08:55:36.222404 17213 net.cpp:434] mbox_priorbox <- conv6_2_mbox_priorbox
I0824 08:55:36.222406 17213 net.cpp:434] mbox_priorbox <- conv7_2_mbox_priorbox
I0824 08:55:36.222409 17213 net.cpp:434] mbox_priorbox <- conv8_2_mbox_priorbox
I0824 08:55:36.222410 17213 net.cpp:434] mbox_priorbox <- conv9_2_mbox_priorbox
I0824 08:55:36.222414 17213 net.cpp:408] mbox_priorbox -> mbox_priorbox
I0824 08:55:36.222417 17213 net.cpp:150] Setting up mbox_priorbox
I0824 08:55:36.222419 17213 net.cpp:157] Top shape: 1 2 34928 (69856)
I0824 08:55:36.222421 17213 net.cpp:165] Memory required for data: 2005378368
I0824 08:55:36.222424 17213 layer_factory.hpp:77] Creating layer mbox_conf_reshape
I0824 08:55:36.222432 17213 net.cpp:100] Creating Layer mbox_conf_reshape
I0824 08:55:36.222436 17213 net.cpp:434] mbox_conf_reshape <- mbox_conf
I0824 08:55:36.222440 17213 net.cpp:408] mbox_conf_reshape -> mbox_conf_reshape
I0824 08:55:36.222461 17213 net.cpp:150] Setting up mbox_conf_reshape
I0824 08:55:36.222463 17213 net.cpp:157] Top shape: 8 8732 21 (1466976)
I0824 08:55:36.222465 17213 net.cpp:165] Memory required for data: 2011246272
I0824 08:55:36.222467 17213 layer_factory.hpp:77] Creating layer mbox_conf_softmax
I0824 08:55:36.222471 17213 net.cpp:100] Creating Layer mbox_conf_softmax
I0824 08:55:36.222472 17213 net.cpp:434] mbox_conf_softmax <- mbox_conf_reshape
I0824 08:55:36.222476 17213 net.cpp:408] mbox_conf_softmax -> mbox_conf_softmax
I0824 08:55:36.222479 17213 net.cpp:150] Setting up mbox_conf_softmax
I0824 08:55:36.222481 17213 net.cpp:157] Top shape: 8 8732 21 (1466976)
I0824 08:55:36.222483 17213 net.cpp:165] Memory required for data: 2017114176
I0824 08:55:36.222486 17213 layer_factory.hpp:77] Creating layer mbox_conf_flatten
I0824 08:55:36.222489 17213 net.cpp:100] Creating Layer mbox_conf_flatten
I0824 08:55:36.222491 17213 net.cpp:434] mbox_conf_flatten <- mbox_conf_softmax
I0824 08:55:36.222493 17213 net.cpp:408] mbox_conf_flatten -> mbox_conf_flatten
I0824 08:55:36.222496 17213 net.cpp:150] Setting up mbox_conf_flatten
I0824 08:55:36.222498 17213 net.cpp:157] Top shape: 8 183372 (1466976)
I0824 08:55:36.222499 17213 net.cpp:165] Memory required for data: 2022982080
I0824 08:55:36.222501 17213 layer_factory.hpp:77] Creating layer detection_out
I0824 08:55:36.222518 17213 net.cpp:100] Creating Layer detection_out
I0824 08:55:36.222520 17213 net.cpp:434] detection_out <- mbox_loc
I0824 08:55:36.222522 17213 net.cpp:434] detection_out <- mbox_conf_flatten
I0824 08:55:36.222524 17213 net.cpp:434] detection_out <- mbox_priorbox
I0824 08:55:36.222527 17213 net.cpp:408] detection_out -> detection_out
I0824 08:55:36.309824 17213 net.cpp:150] Setting up detection_out
I0824 08:55:36.309873 17213 net.cpp:157] Top shape: 1 1 1 7 (7)
I0824 08:55:36.309878 17213 net.cpp:165] Memory required for data: 2022982108
I0824 08:55:36.309881 17213 layer_factory.hpp:77] Creating layer detection_eval
I0824 08:55:36.309897 17213 net.cpp:100] Creating Layer detection_eval
I0824 08:55:36.309903 17213 net.cpp:434] detection_eval <- detection_out
I0824 08:55:36.309907 17213 net.cpp:434] detection_eval <- label
I0824 08:55:36.309911 17213 net.cpp:408] detection_eval -> detection_eval
I0824 08:55:36.311326 17213 net.cpp:150] Setting up detection_eval
I0824 08:55:36.311332 17213 net.cpp:157] Top shape: 1 1 21 5 (105)
I0824 08:55:36.311336 17213 net.cpp:165] Memory required for data: 2022982528
I0824 08:55:36.311337 17213 net.cpp:228] detection_eval does not need backward computation.
I0824 08:55:36.311340 17213 net.cpp:228] detection_out does not need backward computation.
I0824 08:55:36.311343 17213 net.cpp:228] mbox_conf_flatten does not need backward computation.
I0824 08:55:36.311345 17213 net.cpp:228] mbox_conf_softmax does not need backward computation.
…
